<?xml version="1.0"?>
<net name="Model0" version="11">
	<layers>
		<layer id="0" name="pixel_values" type="Parameter" version="opset1">
			<data shape="?,?,?,?" element_type="f32" />
			<output>
				<port id="0" precision="FP32" names="44,pixel_values,pixel_values_1">
					<dim>-1</dim>
					<dim>-1</dim>
					<dim>-1</dim>
					<dim>-1</dim>
				</port>
			</output>
		</layer>
		<layer id="1" name="self.model.backbone.embeddings.cls_token_compressed" type="Const" version="opset1">
			<data element_type="f16" shape="1, 1, 384" offset="0" size="768" />
			<output>
				<port id="0" precision="FP16" names="self.model.backbone.embeddings.cls_token">
					<dim>1</dim>
					<dim>1</dim>
					<dim>384</dim>
				</port>
			</output>
		</layer>
		<layer id="2" name="self.model.backbone.embeddings.cls_token" type="Convert" version="opset1">
			<data destination_type="f32" />
			<rt_info>
				<attribute name="decompression" version="0" />
			</rt_info>
			<input>
				<port id="0" precision="FP16">
					<dim>1</dim>
					<dim>1</dim>
					<dim>384</dim>
				</port>
			</input>
			<output>
				<port id="1" precision="FP32">
					<dim>1</dim>
					<dim>1</dim>
					<dim>384</dim>
				</port>
			</output>
		</layer>
		<layer id="3" name="self.model.backbone.embeddings.patch_embeddings.projection.weight_compressed" type="Const" version="opset1">
			<data element_type="f16" shape="384, 3, 14, 14" offset="768" size="451584" />
			<output>
				<port id="0" precision="FP16" names="self.model.backbone.embeddings.patch_embeddings.projection.weight">
					<dim>384</dim>
					<dim>3</dim>
					<dim>14</dim>
					<dim>14</dim>
				</port>
			</output>
		</layer>
		<layer id="4" name="self.model.backbone.embeddings.patch_embeddings.projection.weight" type="Convert" version="opset1">
			<data destination_type="f32" />
			<rt_info>
				<attribute name="decompression" version="0" />
			</rt_info>
			<input>
				<port id="0" precision="FP16">
					<dim>384</dim>
					<dim>3</dim>
					<dim>14</dim>
					<dim>14</dim>
				</port>
			</input>
			<output>
				<port id="1" precision="FP32">
					<dim>384</dim>
					<dim>3</dim>
					<dim>14</dim>
					<dim>14</dim>
				</port>
			</output>
		</layer>
		<layer id="5" name="__module.model.backbone.embeddings.patch_embeddings.projection/aten::_convolution/Convolution" type="Convolution" version="opset1">
			<data strides="14, 14" dilations="1, 1" pads_begin="0, 0" pads_end="0, 0" auto_pad="explicit" />
			<input>
				<port id="0" precision="FP32">
					<dim>-1</dim>
					<dim>-1</dim>
					<dim>-1</dim>
					<dim>-1</dim>
				</port>
				<port id="1" precision="FP32">
					<dim>384</dim>
					<dim>3</dim>
					<dim>14</dim>
					<dim>14</dim>
				</port>
			</input>
			<output>
				<port id="2" precision="FP32">
					<dim>-1</dim>
					<dim>384</dim>
					<dim>-1</dim>
					<dim>-1</dim>
				</port>
			</output>
		</layer>
		<layer id="6" name="__module.model.backbone.embeddings.patch_embeddings.projection/aten::_convolution/Reshape_compressed" type="Const" version="opset1">
			<data element_type="f16" shape="1, 384, 1, 1" offset="452352" size="768" />
			<output>
				<port id="0" precision="FP16">
					<dim>1</dim>
					<dim>384</dim>
					<dim>1</dim>
					<dim>1</dim>
				</port>
			</output>
		</layer>
		<layer id="7" name="__module.model.backbone.embeddings.patch_embeddings.projection/aten::_convolution/Reshape" type="Convert" version="opset1">
			<data destination_type="f32" />
			<rt_info>
				<attribute name="decompression" version="0" />
			</rt_info>
			<input>
				<port id="0" precision="FP16">
					<dim>1</dim>
					<dim>384</dim>
					<dim>1</dim>
					<dim>1</dim>
				</port>
			</input>
			<output>
				<port id="1" precision="FP32">
					<dim>1</dim>
					<dim>384</dim>
					<dim>1</dim>
					<dim>1</dim>
				</port>
			</output>
		</layer>
		<layer id="8" name="__module.model.backbone.embeddings.patch_embeddings.projection/aten::_convolution/Add" type="Add" version="opset1">
			<data auto_broadcast="numpy" />
			<input>
				<port id="0" precision="FP32">
					<dim>-1</dim>
					<dim>384</dim>
					<dim>-1</dim>
					<dim>-1</dim>
				</port>
				<port id="1" precision="FP32">
					<dim>1</dim>
					<dim>384</dim>
					<dim>1</dim>
					<dim>1</dim>
				</port>
			</input>
			<output>
				<port id="2" precision="FP32" names="52">
					<dim>-1</dim>
					<dim>384</dim>
					<dim>-1</dim>
					<dim>-1</dim>
				</port>
			</output>
		</layer>
		<layer id="9" name="ShapeOf_19487" type="ShapeOf" version="opset3">
			<data output_type="i64" />
			<input>
				<port id="0" precision="FP32">
					<dim>-1</dim>
					<dim>384</dim>
					<dim>-1</dim>
					<dim>-1</dim>
				</port>
			</input>
			<output>
				<port id="1" precision="I64">
					<dim>4</dim>
				</port>
			</output>
		</layer>
		<layer id="10" name="Constant_19488" type="Const" version="opset1">
			<data element_type="i64" shape="1" offset="453120" size="8" />
			<rt_info>
				<attribute name="precise" version="0" />
			</rt_info>
			<output>
				<port id="0" precision="I64">
					<dim>1</dim>
				</port>
			</output>
		</layer>
		<layer id="11" name="Constant_19489" type="Const" version="opset1">
			<data element_type="i64" shape="" offset="453120" size="8" />
			<rt_info>
				<attribute name="precise" version="0" />
			</rt_info>
			<output>
				<port id="0" precision="I64" />
			</output>
		</layer>
		<layer id="12" name="Gather_19490" type="Gather" version="opset8">
			<data batch_dims="0" />
			<input>
				<port id="0" precision="I64">
					<dim>4</dim>
				</port>
				<port id="1" precision="I64">
					<dim>1</dim>
				</port>
				<port id="2" precision="I64" />
			</input>
			<output>
				<port id="3" precision="I64" names="1020,1045,1062,134,202,270,338,39,406,474,542,610,678,746,814,882,995">
					<dim>1</dim>
				</port>
			</output>
		</layer>
		<layer id="13" name="Constant_15753" type="Const" version="opset1">
			<data element_type="i64" shape="1" offset="453128" size="8" />
			<rt_info>
				<attribute name="precise" version="0" />
			</rt_info>
			<output>
				<port id="0" precision="I64">
					<dim>1</dim>
				</port>
			</output>
		</layer>
		<layer id="14" name="Constant_15755" type="Const" version="opset1">
			<data element_type="i64" shape="1" offset="453128" size="8" />
			<rt_info>
				<attribute name="precise" version="0" />
			</rt_info>
			<output>
				<port id="0" precision="I64">
					<dim>1</dim>
				</port>
			</output>
		</layer>
		<layer id="15" name="__module.model.backbone.embeddings/prim::ListConstruct/SequenceMark" type="Concat" version="opset1">
			<data axis="0" />
			<input>
				<port id="0" precision="I64">
					<dim>1</dim>
				</port>
				<port id="1" precision="I64">
					<dim>1</dim>
				</port>
				<port id="2" precision="I64">
					<dim>1</dim>
				</port>
			</input>
			<output>
				<port id="3" precision="I64">
					<dim>3</dim>
				</port>
			</output>
		</layer>
		<layer id="16" name="__module.model.backbone.embeddings/aten::expand/Broadcast" type="Broadcast" version="opset3">
			<data mode="bidirectional" />
			<input>
				<port id="0" precision="FP32">
					<dim>1</dim>
					<dim>1</dim>
					<dim>384</dim>
				</port>
				<port id="1" precision="I64">
					<dim>3</dim>
				</port>
			</input>
			<output>
				<port id="2" precision="FP32" names="56,cls_tokens">
					<dim>-1</dim>
					<dim>1</dim>
					<dim>384</dim>
				</port>
			</output>
		</layer>
		<layer id="17" name="Constant_19574" type="Const" version="opset1">
			<data element_type="i64" shape="3" offset="453136" size="24" />
			<rt_info>
				<attribute name="precise" version="0" />
			</rt_info>
			<output>
				<port id="0" precision="I64">
					<dim>3</dim>
				</port>
			</output>
		</layer>
		<layer id="18" name="__module.model.backbone.embeddings.patch_embeddings/aten::flatten/Reshape" type="Reshape" version="opset1">
			<data special_zero="true" />
			<input>
				<port id="0" precision="FP32">
					<dim>-1</dim>
					<dim>384</dim>
					<dim>-1</dim>
					<dim>-1</dim>
				</port>
				<port id="1" precision="I64">
					<dim>3</dim>
				</port>
			</input>
			<output>
				<port id="2" precision="FP32" names="53">
					<dim>-1</dim>
					<dim>384</dim>
					<dim>-1</dim>
				</port>
			</output>
		</layer>
		<layer id="19" name="__module.model.backbone.embeddings.patch_embeddings/aten::transpose/Constant" type="Const" version="opset1">
			<data element_type="i32" shape="3" offset="453160" size="12" />
			<output>
				<port id="0" precision="I32">
					<dim>3</dim>
				</port>
			</output>
		</layer>
		<layer id="20" name="__module.model.backbone.embeddings.patch_embeddings/aten::transpose/Transpose" type="Transpose" version="opset1">
			<input>
				<port id="0" precision="FP32">
					<dim>-1</dim>
					<dim>384</dim>
					<dim>-1</dim>
				</port>
				<port id="1" precision="I32">
					<dim>3</dim>
				</port>
			</input>
			<output>
				<port id="2" precision="FP32" names="54,embeddings.1">
					<dim>-1</dim>
					<dim>-1</dim>
					<dim>384</dim>
				</port>
			</output>
		</layer>
		<layer id="21" name="__module.model.backbone.embeddings/aten::cat/Concat" type="Concat" version="opset1">
			<data axis="1" />
			<input>
				<port id="0" precision="FP32">
					<dim>-1</dim>
					<dim>1</dim>
					<dim>384</dim>
				</port>
				<port id="1" precision="FP32">
					<dim>-1</dim>
					<dim>-1</dim>
					<dim>384</dim>
				</port>
			</input>
			<output>
				<port id="2" precision="FP32" names="58,embeddings.3">
					<dim>-1</dim>
					<dim>-1</dim>
					<dim>384</dim>
				</port>
			</output>
		</layer>
		<layer id="22" name="__module.model.backbone.embeddings/aten::slice/Slice_1_compressed" type="Const" version="opset1">
			<data element_type="f16" shape="1, 1, 384" offset="0" size="768" />
			<output>
				<port id="0" precision="FP16" names="63,class_pos_embed">
					<dim>1</dim>
					<dim>1</dim>
					<dim>384</dim>
				</port>
			</output>
		</layer>
		<layer id="23" name="__module.model.backbone.embeddings/aten::slice/Slice_1" type="Convert" version="opset1">
			<data destination_type="f32" />
			<rt_info>
				<attribute name="decompression" version="0" />
			</rt_info>
			<input>
				<port id="0" precision="FP16">
					<dim>1</dim>
					<dim>1</dim>
					<dim>384</dim>
				</port>
			</input>
			<output>
				<port id="1" precision="FP32">
					<dim>1</dim>
					<dim>1</dim>
					<dim>384</dim>
				</port>
			</output>
		</layer>
		<layer id="24" name="__module.model.backbone.embeddings/aten::to/Convert_2_compressed" type="Const" version="opset1">
			<data element_type="f16" shape="1, 384, 37, 37" offset="453172" size="1051392" />
			<output>
				<port id="0" precision="FP16" names="79,input.1">
					<dim>1</dim>
					<dim>384</dim>
					<dim>37</dim>
					<dim>37</dim>
				</port>
			</output>
		</layer>
		<layer id="25" name="__module.model.backbone.embeddings/aten::to/Convert_2" type="Convert" version="opset1">
			<data destination_type="f32" />
			<rt_info>
				<attribute name="decompression" version="0" />
			</rt_info>
			<input>
				<port id="0" precision="FP16">
					<dim>1</dim>
					<dim>384</dim>
					<dim>37</dim>
					<dim>37</dim>
				</port>
			</input>
			<output>
				<port id="1" precision="FP32">
					<dim>1</dim>
					<dim>384</dim>
					<dim>37</dim>
					<dim>37</dim>
				</port>
			</output>
		</layer>
		<layer id="26" name="ShapeOf_19493" type="ShapeOf" version="opset3">
			<data output_type="i64" />
			<input>
				<port id="0" precision="FP32">
					<dim>-1</dim>
					<dim>-1</dim>
					<dim>-1</dim>
					<dim>-1</dim>
				</port>
			</input>
			<output>
				<port id="1" precision="I64">
					<dim>4</dim>
				</port>
			</output>
		</layer>
		<layer id="27" name="Constant_19494" type="Const" version="opset1">
			<data element_type="i64" shape="" offset="1504564" size="8" />
			<rt_info>
				<attribute name="precise" version="0" />
			</rt_info>
			<output>
				<port id="0" precision="I64" />
			</output>
		</layer>
		<layer id="28" name="Constant_19495" type="Const" version="opset1">
			<data element_type="i64" shape="" offset="453120" size="8" />
			<rt_info>
				<attribute name="precise" version="0" />
			</rt_info>
			<output>
				<port id="0" precision="I64" />
			</output>
		</layer>
		<layer id="29" name="Gather_19496" type="Gather" version="opset8">
			<data batch_dims="0" />
			<input>
				<port id="0" precision="I64">
					<dim>4</dim>
				</port>
				<port id="1" precision="I64" />
				<port id="2" precision="I64" />
			</input>
			<output>
				<port id="3" precision="I64" names="40,961" />
			</output>
		</layer>
		<layer id="30" name="Constant_10" type="Const" version="opset1">
			<data element_type="i64" shape="" offset="1504572" size="8" />
			<rt_info>
				<attribute name="precise" version="0" />
			</rt_info>
			<output>
				<port id="0" precision="I64" names="12" />
			</output>
		</layer>
		<layer id="31" name="__module.model.backbone.embeddings/aten::floor_divide/Divide" type="Divide" version="opset1">
			<data auto_broadcast="numpy" m_pythondiv="true" />
			<input>
				<port id="0" precision="I64" />
				<port id="1" precision="I64" />
			</input>
			<output>
				<port id="2" precision="I64" />
			</output>
		</layer>
		<layer id="32" name="__module.model.backbone.embeddings/aten::floor_divide/Floor" type="Floor" version="opset1">
			<input>
				<port id="0" precision="I64" />
			</input>
			<output>
				<port id="1" precision="I64" names="67,68,965,966,967,968,969,patch_height" />
			</output>
		</layer>
		<layer id="33" name="Constant_306" type="Const" version="opset1">
			<data element_type="i32" shape="" offset="1504580" size="4" />
			<rt_info>
				<attribute name="precise" version="0" />
			</rt_info>
			<output>
				<port id="0" precision="I32" />
			</output>
		</layer>
		<layer id="34" name="Unsqueeze_307" type="Unsqueeze" version="opset1">
			<input>
				<port id="0" precision="I64" />
				<port id="1" precision="I32" />
			</input>
			<output>
				<port id="2" precision="I64">
					<dim>1</dim>
				</port>
			</output>
		</layer>
		<layer id="35" name="22" type="Const" version="opset1">
			<data element_type="i64" shape="" offset="1504584" size="8" />
			<rt_info>
				<attribute name="precise" version="0" />
			</rt_info>
			<output>
				<port id="0" precision="I64" names="22" />
			</output>
		</layer>
		<layer id="36" name="__module.model.backbone.embeddings/aten::size/Constant_3" type="Const" version="opset1">
			<data element_type="i32" shape="" offset="1504580" size="4" />
			<rt_info>
				<attribute name="precise" version="0" />
			</rt_info>
			<output>
				<port id="0" precision="I32" />
			</output>
		</layer>
		<layer id="37" name="__module.model.backbone.embeddings/aten::size/Gather_3" type="Gather" version="opset8">
			<data batch_dims="0" />
			<input>
				<port id="0" precision="I64">
					<dim>4</dim>
				</port>
				<port id="1" precision="I64" />
				<port id="2" precision="I32" />
			</input>
			<output>
				<port id="3" precision="I64" names="42,963" />
			</output>
		</layer>
		<layer id="38" name="__module.model.backbone.embeddings/aten::floor_divide/Divide_1" type="Divide" version="opset1">
			<data auto_broadcast="numpy" m_pythondiv="true" />
			<input>
				<port id="0" precision="I64" />
				<port id="1" precision="I64" />
			</input>
			<output>
				<port id="2" precision="I64" />
			</output>
		</layer>
		<layer id="39" name="__module.model.backbone.embeddings/aten::floor_divide/Floor_1" type="Floor" version="opset1">
			<input>
				<port id="0" precision="I64" />
			</input>
			<output>
				<port id="1" precision="I64" names="69,70,970,971,972,973,974,patch_width" />
			</output>
		</layer>
		<layer id="40" name="Unsqueeze_308" type="Unsqueeze" version="opset1">
			<input>
				<port id="0" precision="I64" />
				<port id="1" precision="I32" />
			</input>
			<output>
				<port id="2" precision="I64">
					<dim>1</dim>
				</port>
			</output>
		</layer>
		<layer id="41" name="Concat_309" type="Concat" version="opset1">
			<data axis="0" />
			<input>
				<port id="0" precision="I64">
					<dim>1</dim>
				</port>
				<port id="1" precision="I64">
					<dim>1</dim>
				</port>
			</input>
			<output>
				<port id="2" precision="I64">
					<dim>2</dim>
				</port>
			</output>
		</layer>
		<layer id="42" name="__module.model.backbone.embeddings/aten::upsample_bicubic2d/Convert" type="Convert" version="opset1">
			<data destination_type="i32" />
			<input>
				<port id="0" precision="I64">
					<dim>2</dim>
				</port>
			</input>
			<output>
				<port id="1" precision="I32">
					<dim>2</dim>
				</port>
			</output>
		</layer>
		<layer id="43" name="Constant_303" type="Const" version="opset1">
			<data element_type="i32" shape="2" offset="1504592" size="8" />
			<output>
				<port id="0" precision="I32">
					<dim>2</dim>
				</port>
			</output>
		</layer>
		<layer id="44" name="__module.model.backbone.embeddings/aten::upsample_bicubic2d/Interpolate" type="Interpolate" version="opset11">
			<data mode="cubic" shape_calculation_mode="sizes" coordinate_transformation_mode="pytorch_half_pixel" nearest_mode="floor" antialias="false" pads_begin="0, 0, 0, 0" pads_end="0, 0, 0, 0" cube_coeff="-0.75" />
			<input>
				<port id="0" precision="FP32">
					<dim>1</dim>
					<dim>384</dim>
					<dim>37</dim>
					<dim>37</dim>
				</port>
				<port id="1" precision="I32">
					<dim>2</dim>
				</port>
				<port id="2" precision="I32">
					<dim>2</dim>
				</port>
			</input>
			<output>
				<port id="3" precision="FP32" names="81,82,patch_pos_embed.7">
					<dim>1</dim>
					<dim>384</dim>
					<dim>-1</dim>
					<dim>-1</dim>
				</port>
			</output>
		</layer>
		<layer id="45" name="Constant_363" type="Const" version="opset1">
			<data element_type="i64" shape="4" offset="1504600" size="32" />
			<output>
				<port id="0" precision="I64">
					<dim>4</dim>
				</port>
			</output>
		</layer>
		<layer id="46" name="__module.model.backbone.embeddings/aten::permute/Transpose_1" type="Transpose" version="opset1">
			<input>
				<port id="0" precision="FP32">
					<dim>1</dim>
					<dim>384</dim>
					<dim>-1</dim>
					<dim>-1</dim>
				</port>
				<port id="1" precision="I64">
					<dim>4</dim>
				</port>
			</input>
			<output>
				<port id="2" precision="FP32" names="84">
					<dim>1</dim>
					<dim>-1</dim>
					<dim>-1</dim>
					<dim>384</dim>
				</port>
			</output>
		</layer>
		<layer id="47" name="Constant_377" type="Const" version="opset1">
			<data element_type="i64" shape="3" offset="1504632" size="24" />
			<rt_info>
				<attribute name="precise" version="0" />
			</rt_info>
			<output>
				<port id="0" precision="I64">
					<dim>3</dim>
				</port>
			</output>
		</layer>
		<layer id="48" name="__module.model.backbone.embeddings/aten::view/Reshape" type="Reshape" version="opset1">
			<data special_zero="false" />
			<input>
				<port id="0" precision="FP32">
					<dim>1</dim>
					<dim>-1</dim>
					<dim>-1</dim>
					<dim>384</dim>
				</port>
				<port id="1" precision="I64">
					<dim>3</dim>
				</port>
			</input>
			<output>
				<port id="2" precision="FP32" names="86,patch_pos_embed">
					<dim>1</dim>
					<dim>-1</dim>
					<dim>384</dim>
				</port>
			</output>
		</layer>
		<layer id="49" name="__module.model.backbone.embeddings/aten::cat/Concat_1" type="Concat" version="opset1">
			<data axis="1" />
			<input>
				<port id="0" precision="FP32">
					<dim>1</dim>
					<dim>1</dim>
					<dim>384</dim>
				</port>
				<port id="1" precision="FP32">
					<dim>1</dim>
					<dim>-1</dim>
					<dim>384</dim>
				</port>
			</input>
			<output>
				<port id="2" precision="FP32" names="88">
					<dim>1</dim>
					<dim>-1</dim>
					<dim>384</dim>
				</port>
			</output>
		</layer>
		<layer id="50" name="__module.model.backbone.embeddings/aten::add/Add" type="Add" version="opset1">
			<data auto_broadcast="numpy" />
			<input>
				<port id="0" precision="FP32">
					<dim>-1</dim>
					<dim>-1</dim>
					<dim>384</dim>
				</port>
				<port id="1" precision="FP32">
					<dim>1</dim>
					<dim>-1</dim>
					<dim>384</dim>
				</port>
			</input>
			<output>
				<port id="2" precision="FP32" names="89,input.3">
					<dim>-1</dim>
					<dim>-1</dim>
					<dim>384</dim>
				</port>
			</output>
		</layer>
		<layer id="51" name="__module.model.backbone.encoder.layer.0.norm1/aten::layer_norm/Multiply" type="Const" version="opset1">
			<data element_type="i32" shape="1" offset="1504656" size="4" />
			<output>
				<port id="0" precision="I32">
					<dim>1</dim>
				</port>
			</output>
		</layer>
		<layer id="52" name="__module.model.backbone.encoder.layer.0.norm1/aten::layer_norm/MVN" type="MVN" version="opset6">
			<data eps="9.9999999747524271e-07" normalize_variance="true" eps_mode="INSIDE_SQRT" />
			<input>
				<port id="0" precision="FP32">
					<dim>-1</dim>
					<dim>-1</dim>
					<dim>384</dim>
				</port>
				<port id="1" precision="I32">
					<dim>1</dim>
				</port>
			</input>
			<output>
				<port id="2" precision="FP32">
					<dim>-1</dim>
					<dim>-1</dim>
					<dim>384</dim>
				</port>
			</output>
		</layer>
		<layer id="53" name="Constant_19007_compressed" type="Const" version="opset1">
			<data element_type="f16" shape="1, 1, 384" offset="1504660" size="768" />
			<output>
				<port id="0" precision="FP16">
					<dim>1</dim>
					<dim>1</dim>
					<dim>384</dim>
				</port>
			</output>
		</layer>
		<layer id="54" name="Constant_19007" type="Convert" version="opset1">
			<data destination_type="f32" />
			<rt_info>
				<attribute name="decompression" version="0" />
			</rt_info>
			<input>
				<port id="0" precision="FP16">
					<dim>1</dim>
					<dim>1</dim>
					<dim>384</dim>
				</port>
			</input>
			<output>
				<port id="1" precision="FP32">
					<dim>1</dim>
					<dim>1</dim>
					<dim>384</dim>
				</port>
			</output>
		</layer>
		<layer id="55" name="__module.model.backbone.encoder.layer.0.norm1/aten::layer_norm/Multiply_1" type="Multiply" version="opset1">
			<data auto_broadcast="numpy" />
			<input>
				<port id="0" precision="FP32">
					<dim>-1</dim>
					<dim>-1</dim>
					<dim>384</dim>
				</port>
				<port id="1" precision="FP32">
					<dim>1</dim>
					<dim>1</dim>
					<dim>384</dim>
				</port>
			</input>
			<output>
				<port id="2" precision="FP32">
					<dim>-1</dim>
					<dim>-1</dim>
					<dim>384</dim>
				</port>
			</output>
		</layer>
		<layer id="56" name="Constant_19008" type="Const" version="opset1">
			<data element_type="f32" shape="1, 1, 384" offset="1505428" size="1536" />
			<output>
				<port id="0" precision="FP32">
					<dim>1</dim>
					<dim>1</dim>
					<dim>384</dim>
				</port>
			</output>
		</layer>
		<layer id="57" name="__module.model.backbone.encoder.layer.0.norm1/aten::layer_norm/Add" type="Add" version="opset1">
			<data auto_broadcast="numpy" />
			<input>
				<port id="0" precision="FP32">
					<dim>-1</dim>
					<dim>-1</dim>
					<dim>384</dim>
				</port>
				<port id="1" precision="FP32">
					<dim>1</dim>
					<dim>1</dim>
					<dim>384</dim>
				</port>
			</input>
			<output>
				<port id="2" precision="FP32" names="128,hidden_states.1">
					<dim>-1</dim>
					<dim>-1</dim>
					<dim>384</dim>
				</port>
			</output>
		</layer>
		<layer id="58" name="self.model.backbone.encoder.layer.0.attention.attention.query.weight_compressed" type="Const" version="opset1">
			<data element_type="f16" shape="384, 384" offset="1506964" size="294912" />
			<output>
				<port id="0" precision="FP16" names="self.model.backbone.encoder.layer.0.attention.attention.query.weight">
					<dim>384</dim>
					<dim>384</dim>
				</port>
			</output>
		</layer>
		<layer id="59" name="self.model.backbone.encoder.layer.0.attention.attention.query.weight" type="Convert" version="opset1">
			<data destination_type="f32" />
			<rt_info>
				<attribute name="decompression" version="0" />
			</rt_info>
			<input>
				<port id="0" precision="FP16">
					<dim>384</dim>
					<dim>384</dim>
				</port>
			</input>
			<output>
				<port id="1" precision="FP32">
					<dim>384</dim>
					<dim>384</dim>
				</port>
			</output>
		</layer>
		<layer id="60" name="__module.model.backbone.encoder.layer.0.attention.attention.query/aten::linear/MatMul" type="MatMul" version="opset1">
			<data transpose_a="false" transpose_b="true" />
			<input>
				<port id="0" precision="FP32">
					<dim>-1</dim>
					<dim>-1</dim>
					<dim>384</dim>
				</port>
				<port id="1" precision="FP32">
					<dim>384</dim>
					<dim>384</dim>
				</port>
			</input>
			<output>
				<port id="2" precision="FP32">
					<dim>-1</dim>
					<dim>-1</dim>
					<dim>384</dim>
				</port>
			</output>
		</layer>
		<layer id="61" name="Constant_19009_compressed" type="Const" version="opset1">
			<data element_type="f16" shape="1, 1, 384" offset="1801876" size="768" />
			<output>
				<port id="0" precision="FP16">
					<dim>1</dim>
					<dim>1</dim>
					<dim>384</dim>
				</port>
			</output>
		</layer>
		<layer id="62" name="Constant_19009" type="Convert" version="opset1">
			<data destination_type="f32" />
			<rt_info>
				<attribute name="decompression" version="0" />
			</rt_info>
			<input>
				<port id="0" precision="FP16">
					<dim>1</dim>
					<dim>1</dim>
					<dim>384</dim>
				</port>
			</input>
			<output>
				<port id="1" precision="FP32">
					<dim>1</dim>
					<dim>1</dim>
					<dim>384</dim>
				</port>
			</output>
		</layer>
		<layer id="63" name="__module.model.backbone.encoder.layer.0.attention.attention.query/aten::linear/Add" type="Add" version="opset1">
			<data auto_broadcast="numpy" />
			<input>
				<port id="0" precision="FP32">
					<dim>-1</dim>
					<dim>-1</dim>
					<dim>384</dim>
				</port>
				<port id="1" precision="FP32">
					<dim>1</dim>
					<dim>1</dim>
					<dim>384</dim>
				</port>
			</input>
			<output>
				<port id="2" precision="FP32" names="149">
					<dim>-1</dim>
					<dim>-1</dim>
					<dim>384</dim>
				</port>
			</output>
		</layer>
		<layer id="64" name="Constant_19575" type="Const" version="opset1">
			<data element_type="i64" shape="4" offset="1802644" size="32" />
			<rt_info>
				<attribute name="precise" version="0" />
			</rt_info>
			<output>
				<port id="0" precision="I64">
					<dim>4</dim>
				</port>
			</output>
		</layer>
		<layer id="65" name="__module.model.backbone.encoder.layer.0.attention.attention/aten::view/Reshape" type="Reshape" version="opset1">
			<data special_zero="true" />
			<input>
				<port id="0" precision="FP32">
					<dim>-1</dim>
					<dim>-1</dim>
					<dim>384</dim>
				</port>
				<port id="1" precision="I64">
					<dim>4</dim>
				</port>
			</input>
			<output>
				<port id="2" precision="FP32" names="151">
					<dim>-1</dim>
					<dim>-1</dim>
					<dim>6</dim>
					<dim>64</dim>
				</port>
			</output>
		</layer>
		<layer id="66" name="__module.model.backbone.encoder.layer.0.attention.attention/aten::transpose/Constant" type="Const" version="opset1">
			<data element_type="i32" shape="4" offset="1802676" size="16" />
			<output>
				<port id="0" precision="I32">
					<dim>4</dim>
				</port>
			</output>
		</layer>
		<layer id="67" name="__module.model.backbone.encoder.layer.0.attention.attention/aten::transpose/Transpose" type="Transpose" version="opset1">
			<input>
				<port id="0" precision="FP32">
					<dim>-1</dim>
					<dim>-1</dim>
					<dim>6</dim>
					<dim>64</dim>
				</port>
				<port id="1" precision="I32">
					<dim>4</dim>
				</port>
			</input>
			<output>
				<port id="2" precision="FP32" names="152,query.1">
					<dim>-1</dim>
					<dim>6</dim>
					<dim>-1</dim>
					<dim>64</dim>
				</port>
			</output>
		</layer>
		<layer id="68" name="self.model.backbone.encoder.layer.0.attention.attention.key.weight_compressed" type="Const" version="opset1">
			<data element_type="f16" shape="384, 384" offset="1802692" size="294912" />
			<output>
				<port id="0" precision="FP16" names="self.model.backbone.encoder.layer.0.attention.attention.key.weight">
					<dim>384</dim>
					<dim>384</dim>
				</port>
			</output>
		</layer>
		<layer id="69" name="self.model.backbone.encoder.layer.0.attention.attention.key.weight" type="Convert" version="opset1">
			<data destination_type="f32" />
			<rt_info>
				<attribute name="decompression" version="0" />
			</rt_info>
			<input>
				<port id="0" precision="FP16">
					<dim>384</dim>
					<dim>384</dim>
				</port>
			</input>
			<output>
				<port id="1" precision="FP32">
					<dim>384</dim>
					<dim>384</dim>
				</port>
			</output>
		</layer>
		<layer id="70" name="__module.model.backbone.encoder.layer.0.attention.attention.key/aten::linear/MatMul" type="MatMul" version="opset1">
			<data transpose_a="false" transpose_b="true" />
			<input>
				<port id="0" precision="FP32">
					<dim>-1</dim>
					<dim>-1</dim>
					<dim>384</dim>
				</port>
				<port id="1" precision="FP32">
					<dim>384</dim>
					<dim>384</dim>
				</port>
			</input>
			<output>
				<port id="2" precision="FP32">
					<dim>-1</dim>
					<dim>-1</dim>
					<dim>384</dim>
				</port>
			</output>
		</layer>
		<layer id="71" name="Constant_19010_compressed" type="Const" version="opset1">
			<data element_type="f16" shape="1, 1, 384" offset="2097604" size="768" />
			<output>
				<port id="0" precision="FP16">
					<dim>1</dim>
					<dim>1</dim>
					<dim>384</dim>
				</port>
			</output>
		</layer>
		<layer id="72" name="Constant_19010" type="Convert" version="opset1">
			<data destination_type="f32" />
			<rt_info>
				<attribute name="decompression" version="0" />
			</rt_info>
			<input>
				<port id="0" precision="FP16">
					<dim>1</dim>
					<dim>1</dim>
					<dim>384</dim>
				</port>
			</input>
			<output>
				<port id="1" precision="FP32">
					<dim>1</dim>
					<dim>1</dim>
					<dim>384</dim>
				</port>
			</output>
		</layer>
		<layer id="73" name="__module.model.backbone.encoder.layer.0.attention.attention.key/aten::linear/Add" type="Add" version="opset1">
			<data auto_broadcast="numpy" />
			<input>
				<port id="0" precision="FP32">
					<dim>-1</dim>
					<dim>-1</dim>
					<dim>384</dim>
				</port>
				<port id="1" precision="FP32">
					<dim>1</dim>
					<dim>1</dim>
					<dim>384</dim>
				</port>
			</input>
			<output>
				<port id="2" precision="FP32" names="137">
					<dim>-1</dim>
					<dim>-1</dim>
					<dim>384</dim>
				</port>
			</output>
		</layer>
		<layer id="74" name="Constant_19576" type="Const" version="opset1">
			<data element_type="i64" shape="4" offset="1802644" size="32" />
			<rt_info>
				<attribute name="precise" version="0" />
			</rt_info>
			<output>
				<port id="0" precision="I64">
					<dim>4</dim>
				</port>
			</output>
		</layer>
		<layer id="75" name="__module.model.backbone.encoder.layer.0.attention.attention/aten::view/Reshape_1" type="Reshape" version="opset1">
			<data special_zero="true" />
			<input>
				<port id="0" precision="FP32">
					<dim>-1</dim>
					<dim>-1</dim>
					<dim>384</dim>
				</port>
				<port id="1" precision="I64">
					<dim>4</dim>
				</port>
			</input>
			<output>
				<port id="2" precision="FP32" names="139">
					<dim>-1</dim>
					<dim>-1</dim>
					<dim>6</dim>
					<dim>64</dim>
				</port>
			</output>
		</layer>
		<layer id="76" name="__module.model.backbone.encoder.layer.0.attention.attention/aten::transpose/Constant_1" type="Const" version="opset1">
			<data element_type="i32" shape="4" offset="1802676" size="16" />
			<output>
				<port id="0" precision="I32">
					<dim>4</dim>
				</port>
			</output>
		</layer>
		<layer id="77" name="__module.model.backbone.encoder.layer.0.attention.attention/aten::transpose/Transpose_1" type="Transpose" version="opset1">
			<input>
				<port id="0" precision="FP32">
					<dim>-1</dim>
					<dim>-1</dim>
					<dim>6</dim>
					<dim>64</dim>
				</port>
				<port id="1" precision="I32">
					<dim>4</dim>
				</port>
			</input>
			<output>
				<port id="2" precision="FP32" names="140,key.1">
					<dim>-1</dim>
					<dim>6</dim>
					<dim>-1</dim>
					<dim>64</dim>
				</port>
			</output>
		</layer>
		<layer id="78" name="self.model.backbone.encoder.layer.0.attention.attention.value.weight_compressed" type="Const" version="opset1">
			<data element_type="f16" shape="384, 384" offset="2098372" size="294912" />
			<output>
				<port id="0" precision="FP16" names="self.model.backbone.encoder.layer.0.attention.attention.value.weight">
					<dim>384</dim>
					<dim>384</dim>
				</port>
			</output>
		</layer>
		<layer id="79" name="self.model.backbone.encoder.layer.0.attention.attention.value.weight" type="Convert" version="opset1">
			<data destination_type="f32" />
			<rt_info>
				<attribute name="decompression" version="0" />
			</rt_info>
			<input>
				<port id="0" precision="FP16">
					<dim>384</dim>
					<dim>384</dim>
				</port>
			</input>
			<output>
				<port id="1" precision="FP32">
					<dim>384</dim>
					<dim>384</dim>
				</port>
			</output>
		</layer>
		<layer id="80" name="__module.model.backbone.encoder.layer.0.attention.attention.value/aten::linear/MatMul" type="MatMul" version="opset1">
			<data transpose_a="false" transpose_b="true" />
			<input>
				<port id="0" precision="FP32">
					<dim>-1</dim>
					<dim>-1</dim>
					<dim>384</dim>
				</port>
				<port id="1" precision="FP32">
					<dim>384</dim>
					<dim>384</dim>
				</port>
			</input>
			<output>
				<port id="2" precision="FP32">
					<dim>-1</dim>
					<dim>-1</dim>
					<dim>384</dim>
				</port>
			</output>
		</layer>
		<layer id="81" name="Constant_19011_compressed" type="Const" version="opset1">
			<data element_type="f16" shape="1, 1, 384" offset="2393284" size="768" />
			<output>
				<port id="0" precision="FP16">
					<dim>1</dim>
					<dim>1</dim>
					<dim>384</dim>
				</port>
			</output>
		</layer>
		<layer id="82" name="Constant_19011" type="Convert" version="opset1">
			<data destination_type="f32" />
			<rt_info>
				<attribute name="decompression" version="0" />
			</rt_info>
			<input>
				<port id="0" precision="FP16">
					<dim>1</dim>
					<dim>1</dim>
					<dim>384</dim>
				</port>
			</input>
			<output>
				<port id="1" precision="FP32">
					<dim>1</dim>
					<dim>1</dim>
					<dim>384</dim>
				</port>
			</output>
		</layer>
		<layer id="83" name="__module.model.backbone.encoder.layer.0.attention.attention.value/aten::linear/Add" type="Add" version="opset1">
			<data auto_broadcast="numpy" />
			<input>
				<port id="0" precision="FP32">
					<dim>-1</dim>
					<dim>-1</dim>
					<dim>384</dim>
				</port>
				<port id="1" precision="FP32">
					<dim>1</dim>
					<dim>1</dim>
					<dim>384</dim>
				</port>
			</input>
			<output>
				<port id="2" precision="FP32" names="143">
					<dim>-1</dim>
					<dim>-1</dim>
					<dim>384</dim>
				</port>
			</output>
		</layer>
		<layer id="84" name="Constant_19577" type="Const" version="opset1">
			<data element_type="i64" shape="4" offset="1802644" size="32" />
			<rt_info>
				<attribute name="precise" version="0" />
			</rt_info>
			<output>
				<port id="0" precision="I64">
					<dim>4</dim>
				</port>
			</output>
		</layer>
		<layer id="85" name="__module.model.backbone.encoder.layer.0.attention.attention/aten::view/Reshape_2" type="Reshape" version="opset1">
			<data special_zero="true" />
			<input>
				<port id="0" precision="FP32">
					<dim>-1</dim>
					<dim>-1</dim>
					<dim>384</dim>
				</port>
				<port id="1" precision="I64">
					<dim>4</dim>
				</port>
			</input>
			<output>
				<port id="2" precision="FP32" names="145">
					<dim>-1</dim>
					<dim>-1</dim>
					<dim>6</dim>
					<dim>64</dim>
				</port>
			</output>
		</layer>
		<layer id="86" name="__module.model.backbone.encoder.layer.0.attention.attention/aten::transpose/Constant_2" type="Const" version="opset1">
			<data element_type="i32" shape="4" offset="1802676" size="16" />
			<output>
				<port id="0" precision="I32">
					<dim>4</dim>
				</port>
			</output>
		</layer>
		<layer id="87" name="__module.model.backbone.encoder.layer.0.attention.attention/aten::transpose/Transpose_2" type="Transpose" version="opset1">
			<input>
				<port id="0" precision="FP32">
					<dim>-1</dim>
					<dim>-1</dim>
					<dim>6</dim>
					<dim>64</dim>
				</port>
				<port id="1" precision="I32">
					<dim>4</dim>
				</port>
			</input>
			<output>
				<port id="2" precision="FP32" names="146,value.1">
					<dim>-1</dim>
					<dim>6</dim>
					<dim>-1</dim>
					<dim>64</dim>
				</port>
			</output>
		</layer>
		<layer id="88" name="__module.model.backbone.encoder.layer.0.attention.attention/aten::scaled_dot_product_attention/ConvertLike_compressed" type="Const" version="opset1">
			<data element_type="f16" shape="" offset="2394052" size="2" />
			<output>
				<port id="0" precision="FP16" />
			</output>
		</layer>
		<layer id="89" name="__module.model.backbone.encoder.layer.0.attention.attention/aten::scaled_dot_product_attention/ConvertLike" type="Convert" version="opset1">
			<data destination_type="f32" />
			<rt_info>
				<attribute name="decompression" version="0" />
			</rt_info>
			<input>
				<port id="0" precision="FP16" />
			</input>
			<output>
				<port id="1" precision="FP32" />
			</output>
		</layer>
		<layer id="90" name="__module.model.backbone.encoder.layer.0.attention.attention/aten::scaled_dot_product_attention/ConvertLike_1_compressed" type="Const" version="opset1">
			<data element_type="f16" shape="" offset="2394054" size="2" />
			<output>
				<port id="0" precision="FP16" />
			</output>
		</layer>
		<layer id="91" name="__module.model.backbone.encoder.layer.0.attention.attention/aten::scaled_dot_product_attention/ConvertLike_1" type="Convert" version="opset1">
			<data destination_type="f32" />
			<rt_info>
				<attribute name="decompression" version="0" />
			</rt_info>
			<input>
				<port id="0" precision="FP16" />
			</input>
			<output>
				<port id="1" precision="FP32" />
			</output>
		</layer>
		<layer id="92" name="__module.model.backbone.encoder.layer.0.attention.attention/aten::scaled_dot_product_attention/ScaledDotProductAttention" type="ScaledDotProductAttention" version="opset13">
			<data causal="false" />
			<input>
				<port id="0" precision="FP32">
					<dim>-1</dim>
					<dim>6</dim>
					<dim>-1</dim>
					<dim>64</dim>
				</port>
				<port id="1" precision="FP32">
					<dim>-1</dim>
					<dim>6</dim>
					<dim>-1</dim>
					<dim>64</dim>
				</port>
				<port id="2" precision="FP32">
					<dim>-1</dim>
					<dim>6</dim>
					<dim>-1</dim>
					<dim>64</dim>
				</port>
				<port id="3" precision="FP32" />
				<port id="4" precision="FP32" />
			</input>
			<output>
				<port id="5" precision="FP32" names="153,attn_output.1">
					<dim>-1</dim>
					<dim>6</dim>
					<dim>-1</dim>
					<dim>64</dim>
				</port>
			</output>
		</layer>
		<layer id="93" name="__module.model.backbone.encoder.layer.0.attention.attention/aten::transpose/Constant_3" type="Const" version="opset1">
			<data element_type="i32" shape="4" offset="1802676" size="16" />
			<output>
				<port id="0" precision="I32">
					<dim>4</dim>
				</port>
			</output>
		</layer>
		<layer id="94" name="__module.model.backbone.encoder.layer.0.attention.attention/aten::transpose/Transpose_3" type="Transpose" version="opset1">
			<input>
				<port id="0" precision="FP32">
					<dim>-1</dim>
					<dim>6</dim>
					<dim>-1</dim>
					<dim>64</dim>
				</port>
				<port id="1" precision="I32">
					<dim>4</dim>
				</port>
			</input>
			<output>
				<port id="2" precision="FP32" names="154">
					<dim>-1</dim>
					<dim>-1</dim>
					<dim>6</dim>
					<dim>64</dim>
				</port>
			</output>
		</layer>
		<layer id="95" name="__module.model.backbone.encoder.layer.0.attention.attention/prim::ListConstruct/SequenceMark_3" type="Const" version="opset1">
			<data element_type="i64" shape="3" offset="2394056" size="24" />
			<rt_info>
				<attribute name="precise" version="0" />
			</rt_info>
			<output>
				<port id="0" precision="I64">
					<dim>3</dim>
				</port>
			</output>
		</layer>
		<layer id="96" name="__module.model.backbone.encoder.layer.0.attention.attention/aten::reshape/Reshape" type="Reshape" version="opset1">
			<data special_zero="true" />
			<input>
				<port id="0" precision="FP32">
					<dim>-1</dim>
					<dim>-1</dim>
					<dim>6</dim>
					<dim>64</dim>
				</port>
				<port id="1" precision="I64">
					<dim>3</dim>
				</port>
			</input>
			<output>
				<port id="2" precision="FP32" names="159,input.7">
					<dim>-1</dim>
					<dim>-1</dim>
					<dim>384</dim>
				</port>
			</output>
		</layer>
		<layer id="97" name="self.model.backbone.encoder.layer.0.attention.output.dense.weight_compressed" type="Const" version="opset1">
			<data element_type="f16" shape="384, 384" offset="2394080" size="294912" />
			<output>
				<port id="0" precision="FP16" names="self.model.backbone.encoder.layer.0.attention.output.dense.weight">
					<dim>384</dim>
					<dim>384</dim>
				</port>
			</output>
		</layer>
		<layer id="98" name="self.model.backbone.encoder.layer.0.attention.output.dense.weight" type="Convert" version="opset1">
			<data destination_type="f32" />
			<rt_info>
				<attribute name="decompression" version="0" />
			</rt_info>
			<input>
				<port id="0" precision="FP16">
					<dim>384</dim>
					<dim>384</dim>
				</port>
			</input>
			<output>
				<port id="1" precision="FP32">
					<dim>384</dim>
					<dim>384</dim>
				</port>
			</output>
		</layer>
		<layer id="99" name="__module.model.backbone.encoder.layer.0.attention.output.dense/aten::linear/MatMul" type="MatMul" version="opset1">
			<data transpose_a="false" transpose_b="true" />
			<input>
				<port id="0" precision="FP32">
					<dim>-1</dim>
					<dim>-1</dim>
					<dim>384</dim>
				</port>
				<port id="1" precision="FP32">
					<dim>384</dim>
					<dim>384</dim>
				</port>
			</input>
			<output>
				<port id="2" precision="FP32">
					<dim>-1</dim>
					<dim>-1</dim>
					<dim>384</dim>
				</port>
			</output>
		</layer>
		<layer id="100" name="Constant_19012_compressed" type="Const" version="opset1">
			<data element_type="f16" shape="1, 1, 384" offset="2688992" size="768" />
			<output>
				<port id="0" precision="FP16">
					<dim>1</dim>
					<dim>1</dim>
					<dim>384</dim>
				</port>
			</output>
		</layer>
		<layer id="101" name="Constant_19012" type="Convert" version="opset1">
			<data destination_type="f32" />
			<rt_info>
				<attribute name="decompression" version="0" />
			</rt_info>
			<input>
				<port id="0" precision="FP16">
					<dim>1</dim>
					<dim>1</dim>
					<dim>384</dim>
				</port>
			</input>
			<output>
				<port id="1" precision="FP32">
					<dim>1</dim>
					<dim>1</dim>
					<dim>384</dim>
				</port>
			</output>
		</layer>
		<layer id="102" name="Multiply_18795" type="Multiply" version="opset1">
			<data auto_broadcast="numpy" />
			<input>
				<port id="0" precision="FP32">
					<dim>-1</dim>
					<dim>-1</dim>
					<dim>384</dim>
				</port>
				<port id="1" precision="FP32">
					<dim>1</dim>
					<dim>1</dim>
					<dim>384</dim>
				</port>
			</input>
			<output>
				<port id="2" precision="FP32">
					<dim>-1</dim>
					<dim>-1</dim>
					<dim>384</dim>
				</port>
			</output>
		</layer>
		<layer id="103" name="Constant_19013_compressed" type="Const" version="opset1">
			<data element_type="f16" shape="1, 1, 384" offset="2689760" size="768" />
			<output>
				<port id="0" precision="FP16">
					<dim>1</dim>
					<dim>1</dim>
					<dim>384</dim>
				</port>
			</output>
		</layer>
		<layer id="104" name="Constant_19013" type="Convert" version="opset1">
			<data destination_type="f32" />
			<rt_info>
				<attribute name="decompression" version="0" />
			</rt_info>
			<input>
				<port id="0" precision="FP16">
					<dim>1</dim>
					<dim>1</dim>
					<dim>384</dim>
				</port>
			</input>
			<output>
				<port id="1" precision="FP32">
					<dim>1</dim>
					<dim>1</dim>
					<dim>384</dim>
				</port>
			</output>
		</layer>
		<layer id="105" name="__module.model.backbone.encoder.layer.0.layer_scale1/aten::mul/Multiply" type="Add" version="opset1">
			<data auto_broadcast="numpy" />
			<input>
				<port id="0" precision="FP32">
					<dim>-1</dim>
					<dim>-1</dim>
					<dim>384</dim>
				</port>
				<port id="1" precision="FP32">
					<dim>1</dim>
					<dim>1</dim>
					<dim>384</dim>
				</port>
			</input>
			<output>
				<port id="2" precision="FP32" names="167,self_attention_output.1">
					<dim>-1</dim>
					<dim>-1</dim>
					<dim>384</dim>
				</port>
			</output>
		</layer>
		<layer id="106" name="__module.model.backbone.encoder.layer.0/aten::add/Add" type="Add" version="opset1">
			<data auto_broadcast="numpy" />
			<input>
				<port id="0" precision="FP32">
					<dim>-1</dim>
					<dim>-1</dim>
					<dim>384</dim>
				</port>
				<port id="1" precision="FP32">
					<dim>-1</dim>
					<dim>-1</dim>
					<dim>384</dim>
				</port>
			</input>
			<output>
				<port id="2" precision="FP32" names="168,input.11">
					<dim>-1</dim>
					<dim>-1</dim>
					<dim>384</dim>
				</port>
			</output>
		</layer>
		<layer id="107" name="__module.model.backbone.encoder.layer.0.norm2/aten::layer_norm/Multiply" type="Const" version="opset1">
			<data element_type="i32" shape="1" offset="1504656" size="4" />
			<output>
				<port id="0" precision="I32">
					<dim>1</dim>
				</port>
			</output>
		</layer>
		<layer id="108" name="__module.model.backbone.encoder.layer.0.norm2/aten::layer_norm/MVN" type="MVN" version="opset6">
			<data eps="9.9999999747524271e-07" normalize_variance="true" eps_mode="INSIDE_SQRT" />
			<input>
				<port id="0" precision="FP32">
					<dim>-1</dim>
					<dim>-1</dim>
					<dim>384</dim>
				</port>
				<port id="1" precision="I32">
					<dim>1</dim>
				</port>
			</input>
			<output>
				<port id="2" precision="FP32">
					<dim>-1</dim>
					<dim>-1</dim>
					<dim>384</dim>
				</port>
			</output>
		</layer>
		<layer id="109" name="Constant_19014_compressed" type="Const" version="opset1">
			<data element_type="f16" shape="1, 1, 384" offset="2690528" size="768" />
			<output>
				<port id="0" precision="FP16">
					<dim>1</dim>
					<dim>1</dim>
					<dim>384</dim>
				</port>
			</output>
		</layer>
		<layer id="110" name="Constant_19014" type="Convert" version="opset1">
			<data destination_type="f32" />
			<rt_info>
				<attribute name="decompression" version="0" />
			</rt_info>
			<input>
				<port id="0" precision="FP16">
					<dim>1</dim>
					<dim>1</dim>
					<dim>384</dim>
				</port>
			</input>
			<output>
				<port id="1" precision="FP32">
					<dim>1</dim>
					<dim>1</dim>
					<dim>384</dim>
				</port>
			</output>
		</layer>
		<layer id="111" name="__module.model.backbone.encoder.layer.0.norm2/aten::layer_norm/Multiply_1" type="Multiply" version="opset1">
			<data auto_broadcast="numpy" />
			<input>
				<port id="0" precision="FP32">
					<dim>-1</dim>
					<dim>-1</dim>
					<dim>384</dim>
				</port>
				<port id="1" precision="FP32">
					<dim>1</dim>
					<dim>1</dim>
					<dim>384</dim>
				</port>
			</input>
			<output>
				<port id="2" precision="FP32">
					<dim>-1</dim>
					<dim>-1</dim>
					<dim>384</dim>
				</port>
			</output>
		</layer>
		<layer id="112" name="Constant_19015_compressed" type="Const" version="opset1">
			<data element_type="f16" shape="1, 1, 384" offset="2691296" size="768" />
			<output>
				<port id="0" precision="FP16">
					<dim>1</dim>
					<dim>1</dim>
					<dim>384</dim>
				</port>
			</output>
		</layer>
		<layer id="113" name="Constant_19015" type="Convert" version="opset1">
			<data destination_type="f32" />
			<rt_info>
				<attribute name="decompression" version="0" />
			</rt_info>
			<input>
				<port id="0" precision="FP16">
					<dim>1</dim>
					<dim>1</dim>
					<dim>384</dim>
				</port>
			</input>
			<output>
				<port id="1" precision="FP32">
					<dim>1</dim>
					<dim>1</dim>
					<dim>384</dim>
				</port>
			</output>
		</layer>
		<layer id="114" name="__module.model.backbone.encoder.layer.0.norm2/aten::layer_norm/Add" type="Add" version="opset1">
			<data auto_broadcast="numpy" />
			<input>
				<port id="0" precision="FP32">
					<dim>-1</dim>
					<dim>-1</dim>
					<dim>384</dim>
				</port>
				<port id="1" precision="FP32">
					<dim>1</dim>
					<dim>1</dim>
					<dim>384</dim>
				</port>
			</input>
			<output>
				<port id="2" precision="FP32" names="172,input.13">
					<dim>-1</dim>
					<dim>-1</dim>
					<dim>384</dim>
				</port>
			</output>
		</layer>
		<layer id="115" name="self.model.backbone.encoder.layer.0.mlp.fc1.weight_compressed" type="Const" version="opset1">
			<data element_type="f16" shape="1536, 384" offset="2692064" size="1179648" />
			<output>
				<port id="0" precision="FP16" names="self.model.backbone.encoder.layer.0.mlp.fc1.weight">
					<dim>1536</dim>
					<dim>384</dim>
				</port>
			</output>
		</layer>
		<layer id="116" name="self.model.backbone.encoder.layer.0.mlp.fc1.weight" type="Convert" version="opset1">
			<data destination_type="f32" />
			<rt_info>
				<attribute name="decompression" version="0" />
			</rt_info>
			<input>
				<port id="0" precision="FP16">
					<dim>1536</dim>
					<dim>384</dim>
				</port>
			</input>
			<output>
				<port id="1" precision="FP32">
					<dim>1536</dim>
					<dim>384</dim>
				</port>
			</output>
		</layer>
		<layer id="117" name="__module.model.backbone.encoder.layer.0.mlp.fc1/aten::linear/MatMul" type="MatMul" version="opset1">
			<data transpose_a="false" transpose_b="true" />
			<input>
				<port id="0" precision="FP32">
					<dim>-1</dim>
					<dim>-1</dim>
					<dim>384</dim>
				</port>
				<port id="1" precision="FP32">
					<dim>1536</dim>
					<dim>384</dim>
				</port>
			</input>
			<output>
				<port id="2" precision="FP32">
					<dim>-1</dim>
					<dim>-1</dim>
					<dim>1536</dim>
				</port>
			</output>
		</layer>
		<layer id="118" name="Constant_19016_compressed" type="Const" version="opset1">
			<data element_type="f16" shape="1, 1, 1536" offset="3871712" size="3072" />
			<output>
				<port id="0" precision="FP16">
					<dim>1</dim>
					<dim>1</dim>
					<dim>1536</dim>
				</port>
			</output>
		</layer>
		<layer id="119" name="Constant_19016" type="Convert" version="opset1">
			<data destination_type="f32" />
			<rt_info>
				<attribute name="decompression" version="0" />
			</rt_info>
			<input>
				<port id="0" precision="FP16">
					<dim>1</dim>
					<dim>1</dim>
					<dim>1536</dim>
				</port>
			</input>
			<output>
				<port id="1" precision="FP32">
					<dim>1</dim>
					<dim>1</dim>
					<dim>1536</dim>
				</port>
			</output>
		</layer>
		<layer id="120" name="__module.model.backbone.encoder.layer.0.mlp.fc1/aten::linear/Add" type="Add" version="opset1">
			<data auto_broadcast="numpy" />
			<input>
				<port id="0" precision="FP32">
					<dim>-1</dim>
					<dim>-1</dim>
					<dim>1536</dim>
				</port>
				<port id="1" precision="FP32">
					<dim>1</dim>
					<dim>1</dim>
					<dim>1536</dim>
				</port>
			</input>
			<output>
				<port id="2" precision="FP32" names="178,input.15">
					<dim>-1</dim>
					<dim>-1</dim>
					<dim>1536</dim>
				</port>
			</output>
		</layer>
		<layer id="121" name="__module.model.backbone.encoder.layer.0.mlp.activation/aten::gelu/Gelu" type="Gelu" version="opset7">
			<data approximation_mode="ERF" />
			<input>
				<port id="0" precision="FP32">
					<dim>-1</dim>
					<dim>-1</dim>
					<dim>1536</dim>
				</port>
			</input>
			<output>
				<port id="1" precision="FP32" names="179,input.17">
					<dim>-1</dim>
					<dim>-1</dim>
					<dim>1536</dim>
				</port>
			</output>
		</layer>
		<layer id="122" name="self.model.backbone.encoder.layer.0.mlp.fc2.weight_compressed" type="Const" version="opset1">
			<data element_type="f16" shape="384, 1536" offset="3874784" size="1179648" />
			<output>
				<port id="0" precision="FP16" names="self.model.backbone.encoder.layer.0.mlp.fc2.weight">
					<dim>384</dim>
					<dim>1536</dim>
				</port>
			</output>
		</layer>
		<layer id="123" name="self.model.backbone.encoder.layer.0.mlp.fc2.weight" type="Convert" version="opset1">
			<data destination_type="f32" />
			<rt_info>
				<attribute name="decompression" version="0" />
			</rt_info>
			<input>
				<port id="0" precision="FP16">
					<dim>384</dim>
					<dim>1536</dim>
				</port>
			</input>
			<output>
				<port id="1" precision="FP32">
					<dim>384</dim>
					<dim>1536</dim>
				</port>
			</output>
		</layer>
		<layer id="124" name="__module.model.backbone.encoder.layer.0.mlp.fc2/aten::linear/MatMul" type="MatMul" version="opset1">
			<data transpose_a="false" transpose_b="true" />
			<input>
				<port id="0" precision="FP32">
					<dim>-1</dim>
					<dim>-1</dim>
					<dim>1536</dim>
				</port>
				<port id="1" precision="FP32">
					<dim>384</dim>
					<dim>1536</dim>
				</port>
			</input>
			<output>
				<port id="2" precision="FP32">
					<dim>-1</dim>
					<dim>-1</dim>
					<dim>384</dim>
				</port>
			</output>
		</layer>
		<layer id="125" name="Constant_19017_compressed" type="Const" version="opset1">
			<data element_type="f16" shape="1, 1, 384" offset="5054432" size="768" />
			<output>
				<port id="0" precision="FP16">
					<dim>1</dim>
					<dim>1</dim>
					<dim>384</dim>
				</port>
			</output>
		</layer>
		<layer id="126" name="Constant_19017" type="Convert" version="opset1">
			<data destination_type="f32" />
			<rt_info>
				<attribute name="decompression" version="0" />
			</rt_info>
			<input>
				<port id="0" precision="FP16">
					<dim>1</dim>
					<dim>1</dim>
					<dim>384</dim>
				</port>
			</input>
			<output>
				<port id="1" precision="FP32">
					<dim>1</dim>
					<dim>1</dim>
					<dim>384</dim>
				</port>
			</output>
		</layer>
		<layer id="127" name="Multiply_18799" type="Multiply" version="opset1">
			<data auto_broadcast="numpy" />
			<input>
				<port id="0" precision="FP32">
					<dim>-1</dim>
					<dim>-1</dim>
					<dim>384</dim>
				</port>
				<port id="1" precision="FP32">
					<dim>1</dim>
					<dim>1</dim>
					<dim>384</dim>
				</port>
			</input>
			<output>
				<port id="2" precision="FP32">
					<dim>-1</dim>
					<dim>-1</dim>
					<dim>384</dim>
				</port>
			</output>
		</layer>
		<layer id="128" name="Constant_19018_compressed" type="Const" version="opset1">
			<data element_type="f16" shape="1, 1, 384" offset="5055200" size="768" />
			<output>
				<port id="0" precision="FP16">
					<dim>1</dim>
					<dim>1</dim>
					<dim>384</dim>
				</port>
			</output>
		</layer>
		<layer id="129" name="Constant_19018" type="Convert" version="opset1">
			<data destination_type="f32" />
			<rt_info>
				<attribute name="decompression" version="0" />
			</rt_info>
			<input>
				<port id="0" precision="FP16">
					<dim>1</dim>
					<dim>1</dim>
					<dim>384</dim>
				</port>
			</input>
			<output>
				<port id="1" precision="FP32">
					<dim>1</dim>
					<dim>1</dim>
					<dim>384</dim>
				</port>
			</output>
		</layer>
		<layer id="130" name="__module.model.backbone.encoder.layer.0.layer_scale2/aten::mul/Multiply" type="Add" version="opset1">
			<data auto_broadcast="numpy" />
			<input>
				<port id="0" precision="FP32">
					<dim>-1</dim>
					<dim>-1</dim>
					<dim>384</dim>
				</port>
				<port id="1" precision="FP32">
					<dim>1</dim>
					<dim>1</dim>
					<dim>384</dim>
				</port>
			</input>
			<output>
				<port id="2" precision="FP32" names="184,layer_output.1">
					<dim>-1</dim>
					<dim>-1</dim>
					<dim>384</dim>
				</port>
			</output>
		</layer>
		<layer id="131" name="__module.model.backbone.encoder.layer.0/aten::add/Add_1" type="Add" version="opset1">
			<data auto_broadcast="numpy" />
			<input>
				<port id="0" precision="FP32">
					<dim>-1</dim>
					<dim>-1</dim>
					<dim>384</dim>
				</port>
				<port id="1" precision="FP32">
					<dim>-1</dim>
					<dim>-1</dim>
					<dim>384</dim>
				</port>
			</input>
			<output>
				<port id="2" precision="FP32" names="185,input.19">
					<dim>-1</dim>
					<dim>-1</dim>
					<dim>384</dim>
				</port>
			</output>
		</layer>
		<layer id="132" name="__module.model.backbone.encoder.layer.1.norm1/aten::layer_norm/Multiply" type="Const" version="opset1">
			<data element_type="i32" shape="1" offset="1504656" size="4" />
			<output>
				<port id="0" precision="I32">
					<dim>1</dim>
				</port>
			</output>
		</layer>
		<layer id="133" name="__module.model.backbone.encoder.layer.1.norm1/aten::layer_norm/MVN" type="MVN" version="opset6">
			<data eps="9.9999999747524271e-07" normalize_variance="true" eps_mode="INSIDE_SQRT" />
			<input>
				<port id="0" precision="FP32">
					<dim>-1</dim>
					<dim>-1</dim>
					<dim>384</dim>
				</port>
				<port id="1" precision="I32">
					<dim>1</dim>
				</port>
			</input>
			<output>
				<port id="2" precision="FP32">
					<dim>-1</dim>
					<dim>-1</dim>
					<dim>384</dim>
				</port>
			</output>
		</layer>
		<layer id="134" name="Constant_19019_compressed" type="Const" version="opset1">
			<data element_type="f16" shape="1, 1, 384" offset="5055968" size="768" />
			<output>
				<port id="0" precision="FP16">
					<dim>1</dim>
					<dim>1</dim>
					<dim>384</dim>
				</port>
			</output>
		</layer>
		<layer id="135" name="Constant_19019" type="Convert" version="opset1">
			<data destination_type="f32" />
			<rt_info>
				<attribute name="decompression" version="0" />
			</rt_info>
			<input>
				<port id="0" precision="FP16">
					<dim>1</dim>
					<dim>1</dim>
					<dim>384</dim>
				</port>
			</input>
			<output>
				<port id="1" precision="FP32">
					<dim>1</dim>
					<dim>1</dim>
					<dim>384</dim>
				</port>
			</output>
		</layer>
		<layer id="136" name="__module.model.backbone.encoder.layer.1.norm1/aten::layer_norm/Multiply_1" type="Multiply" version="opset1">
			<data auto_broadcast="numpy" />
			<input>
				<port id="0" precision="FP32">
					<dim>-1</dim>
					<dim>-1</dim>
					<dim>384</dim>
				</port>
				<port id="1" precision="FP32">
					<dim>1</dim>
					<dim>1</dim>
					<dim>384</dim>
				</port>
			</input>
			<output>
				<port id="2" precision="FP32">
					<dim>-1</dim>
					<dim>-1</dim>
					<dim>384</dim>
				</port>
			</output>
		</layer>
		<layer id="137" name="Constant_19020_compressed" type="Const" version="opset1">
			<data element_type="f16" shape="1, 1, 384" offset="5056736" size="768" />
			<output>
				<port id="0" precision="FP16">
					<dim>1</dim>
					<dim>1</dim>
					<dim>384</dim>
				</port>
			</output>
		</layer>
		<layer id="138" name="Constant_19020" type="Convert" version="opset1">
			<data destination_type="f32" />
			<rt_info>
				<attribute name="decompression" version="0" />
			</rt_info>
			<input>
				<port id="0" precision="FP16">
					<dim>1</dim>
					<dim>1</dim>
					<dim>384</dim>
				</port>
			</input>
			<output>
				<port id="1" precision="FP32">
					<dim>1</dim>
					<dim>1</dim>
					<dim>384</dim>
				</port>
			</output>
		</layer>
		<layer id="139" name="__module.model.backbone.encoder.layer.1.norm1/aten::layer_norm/Add" type="Add" version="opset1">
			<data auto_broadcast="numpy" />
			<input>
				<port id="0" precision="FP32">
					<dim>-1</dim>
					<dim>-1</dim>
					<dim>384</dim>
				</port>
				<port id="1" precision="FP32">
					<dim>1</dim>
					<dim>1</dim>
					<dim>384</dim>
				</port>
			</input>
			<output>
				<port id="2" precision="FP32" names="196,hidden_states.3">
					<dim>-1</dim>
					<dim>-1</dim>
					<dim>384</dim>
				</port>
			</output>
		</layer>
		<layer id="140" name="self.model.backbone.encoder.layer.1.attention.attention.query.weight_compressed" type="Const" version="opset1">
			<data element_type="f16" shape="384, 384" offset="5057504" size="294912" />
			<output>
				<port id="0" precision="FP16" names="self.model.backbone.encoder.layer.1.attention.attention.query.weight">
					<dim>384</dim>
					<dim>384</dim>
				</port>
			</output>
		</layer>
		<layer id="141" name="self.model.backbone.encoder.layer.1.attention.attention.query.weight" type="Convert" version="opset1">
			<data destination_type="f32" />
			<rt_info>
				<attribute name="decompression" version="0" />
			</rt_info>
			<input>
				<port id="0" precision="FP16">
					<dim>384</dim>
					<dim>384</dim>
				</port>
			</input>
			<output>
				<port id="1" precision="FP32">
					<dim>384</dim>
					<dim>384</dim>
				</port>
			</output>
		</layer>
		<layer id="142" name="__module.model.backbone.encoder.layer.1.attention.attention.query/aten::linear/MatMul" type="MatMul" version="opset1">
			<data transpose_a="false" transpose_b="true" />
			<input>
				<port id="0" precision="FP32">
					<dim>-1</dim>
					<dim>-1</dim>
					<dim>384</dim>
				</port>
				<port id="1" precision="FP32">
					<dim>384</dim>
					<dim>384</dim>
				</port>
			</input>
			<output>
				<port id="2" precision="FP32">
					<dim>-1</dim>
					<dim>-1</dim>
					<dim>384</dim>
				</port>
			</output>
		</layer>
		<layer id="143" name="Constant_19021_compressed" type="Const" version="opset1">
			<data element_type="f16" shape="1, 1, 384" offset="5352416" size="768" />
			<output>
				<port id="0" precision="FP16">
					<dim>1</dim>
					<dim>1</dim>
					<dim>384</dim>
				</port>
			</output>
		</layer>
		<layer id="144" name="Constant_19021" type="Convert" version="opset1">
			<data destination_type="f32" />
			<rt_info>
				<attribute name="decompression" version="0" />
			</rt_info>
			<input>
				<port id="0" precision="FP16">
					<dim>1</dim>
					<dim>1</dim>
					<dim>384</dim>
				</port>
			</input>
			<output>
				<port id="1" precision="FP32">
					<dim>1</dim>
					<dim>1</dim>
					<dim>384</dim>
				</port>
			</output>
		</layer>
		<layer id="145" name="__module.model.backbone.encoder.layer.1.attention.attention.query/aten::linear/Add" type="Add" version="opset1">
			<data auto_broadcast="numpy" />
			<input>
				<port id="0" precision="FP32">
					<dim>-1</dim>
					<dim>-1</dim>
					<dim>384</dim>
				</port>
				<port id="1" precision="FP32">
					<dim>1</dim>
					<dim>1</dim>
					<dim>384</dim>
				</port>
			</input>
			<output>
				<port id="2" precision="FP32" names="217">
					<dim>-1</dim>
					<dim>-1</dim>
					<dim>384</dim>
				</port>
			</output>
		</layer>
		<layer id="146" name="Constant_19578" type="Const" version="opset1">
			<data element_type="i64" shape="4" offset="1802644" size="32" />
			<rt_info>
				<attribute name="precise" version="0" />
			</rt_info>
			<output>
				<port id="0" precision="I64">
					<dim>4</dim>
				</port>
			</output>
		</layer>
		<layer id="147" name="__module.model.backbone.encoder.layer.1.attention.attention/aten::view/Reshape" type="Reshape" version="opset1">
			<data special_zero="true" />
			<input>
				<port id="0" precision="FP32">
					<dim>-1</dim>
					<dim>-1</dim>
					<dim>384</dim>
				</port>
				<port id="1" precision="I64">
					<dim>4</dim>
				</port>
			</input>
			<output>
				<port id="2" precision="FP32" names="219">
					<dim>-1</dim>
					<dim>-1</dim>
					<dim>6</dim>
					<dim>64</dim>
				</port>
			</output>
		</layer>
		<layer id="148" name="__module.model.backbone.encoder.layer.1.attention.attention/aten::transpose/Constant" type="Const" version="opset1">
			<data element_type="i32" shape="4" offset="1802676" size="16" />
			<output>
				<port id="0" precision="I32">
					<dim>4</dim>
				</port>
			</output>
		</layer>
		<layer id="149" name="__module.model.backbone.encoder.layer.1.attention.attention/aten::transpose/Transpose" type="Transpose" version="opset1">
			<input>
				<port id="0" precision="FP32">
					<dim>-1</dim>
					<dim>-1</dim>
					<dim>6</dim>
					<dim>64</dim>
				</port>
				<port id="1" precision="I32">
					<dim>4</dim>
				</port>
			</input>
			<output>
				<port id="2" precision="FP32" names="220,query.3">
					<dim>-1</dim>
					<dim>6</dim>
					<dim>-1</dim>
					<dim>64</dim>
				</port>
			</output>
		</layer>
		<layer id="150" name="self.model.backbone.encoder.layer.1.attention.attention.key.weight_compressed" type="Const" version="opset1">
			<data element_type="f16" shape="384, 384" offset="5353184" size="294912" />
			<output>
				<port id="0" precision="FP16" names="self.model.backbone.encoder.layer.1.attention.attention.key.weight">
					<dim>384</dim>
					<dim>384</dim>
				</port>
			</output>
		</layer>
		<layer id="151" name="self.model.backbone.encoder.layer.1.attention.attention.key.weight" type="Convert" version="opset1">
			<data destination_type="f32" />
			<rt_info>
				<attribute name="decompression" version="0" />
			</rt_info>
			<input>
				<port id="0" precision="FP16">
					<dim>384</dim>
					<dim>384</dim>
				</port>
			</input>
			<output>
				<port id="1" precision="FP32">
					<dim>384</dim>
					<dim>384</dim>
				</port>
			</output>
		</layer>
		<layer id="152" name="__module.model.backbone.encoder.layer.1.attention.attention.key/aten::linear/MatMul" type="MatMul" version="opset1">
			<data transpose_a="false" transpose_b="true" />
			<input>
				<port id="0" precision="FP32">
					<dim>-1</dim>
					<dim>-1</dim>
					<dim>384</dim>
				</port>
				<port id="1" precision="FP32">
					<dim>384</dim>
					<dim>384</dim>
				</port>
			</input>
			<output>
				<port id="2" precision="FP32">
					<dim>-1</dim>
					<dim>-1</dim>
					<dim>384</dim>
				</port>
			</output>
		</layer>
		<layer id="153" name="Constant_19022_compressed" type="Const" version="opset1">
			<data element_type="f16" shape="1, 1, 384" offset="5648096" size="768" />
			<output>
				<port id="0" precision="FP16">
					<dim>1</dim>
					<dim>1</dim>
					<dim>384</dim>
				</port>
			</output>
		</layer>
		<layer id="154" name="Constant_19022" type="Convert" version="opset1">
			<data destination_type="f32" />
			<rt_info>
				<attribute name="decompression" version="0" />
			</rt_info>
			<input>
				<port id="0" precision="FP16">
					<dim>1</dim>
					<dim>1</dim>
					<dim>384</dim>
				</port>
			</input>
			<output>
				<port id="1" precision="FP32">
					<dim>1</dim>
					<dim>1</dim>
					<dim>384</dim>
				</port>
			</output>
		</layer>
		<layer id="155" name="__module.model.backbone.encoder.layer.1.attention.attention.key/aten::linear/Add" type="Add" version="opset1">
			<data auto_broadcast="numpy" />
			<input>
				<port id="0" precision="FP32">
					<dim>-1</dim>
					<dim>-1</dim>
					<dim>384</dim>
				</port>
				<port id="1" precision="FP32">
					<dim>1</dim>
					<dim>1</dim>
					<dim>384</dim>
				</port>
			</input>
			<output>
				<port id="2" precision="FP32" names="205">
					<dim>-1</dim>
					<dim>-1</dim>
					<dim>384</dim>
				</port>
			</output>
		</layer>
		<layer id="156" name="Constant_19579" type="Const" version="opset1">
			<data element_type="i64" shape="4" offset="1802644" size="32" />
			<rt_info>
				<attribute name="precise" version="0" />
			</rt_info>
			<output>
				<port id="0" precision="I64">
					<dim>4</dim>
				</port>
			</output>
		</layer>
		<layer id="157" name="__module.model.backbone.encoder.layer.1.attention.attention/aten::view/Reshape_1" type="Reshape" version="opset1">
			<data special_zero="true" />
			<input>
				<port id="0" precision="FP32">
					<dim>-1</dim>
					<dim>-1</dim>
					<dim>384</dim>
				</port>
				<port id="1" precision="I64">
					<dim>4</dim>
				</port>
			</input>
			<output>
				<port id="2" precision="FP32" names="207">
					<dim>-1</dim>
					<dim>-1</dim>
					<dim>6</dim>
					<dim>64</dim>
				</port>
			</output>
		</layer>
		<layer id="158" name="__module.model.backbone.encoder.layer.1.attention.attention/aten::transpose/Constant_1" type="Const" version="opset1">
			<data element_type="i32" shape="4" offset="1802676" size="16" />
			<output>
				<port id="0" precision="I32">
					<dim>4</dim>
				</port>
			</output>
		</layer>
		<layer id="159" name="__module.model.backbone.encoder.layer.1.attention.attention/aten::transpose/Transpose_1" type="Transpose" version="opset1">
			<input>
				<port id="0" precision="FP32">
					<dim>-1</dim>
					<dim>-1</dim>
					<dim>6</dim>
					<dim>64</dim>
				</port>
				<port id="1" precision="I32">
					<dim>4</dim>
				</port>
			</input>
			<output>
				<port id="2" precision="FP32" names="208,key.3">
					<dim>-1</dim>
					<dim>6</dim>
					<dim>-1</dim>
					<dim>64</dim>
				</port>
			</output>
		</layer>
		<layer id="160" name="self.model.backbone.encoder.layer.1.attention.attention.value.weight_compressed" type="Const" version="opset1">
			<data element_type="f16" shape="384, 384" offset="5648864" size="294912" />
			<output>
				<port id="0" precision="FP16" names="self.model.backbone.encoder.layer.1.attention.attention.value.weight">
					<dim>384</dim>
					<dim>384</dim>
				</port>
			</output>
		</layer>
		<layer id="161" name="self.model.backbone.encoder.layer.1.attention.attention.value.weight" type="Convert" version="opset1">
			<data destination_type="f32" />
			<rt_info>
				<attribute name="decompression" version="0" />
			</rt_info>
			<input>
				<port id="0" precision="FP16">
					<dim>384</dim>
					<dim>384</dim>
				</port>
			</input>
			<output>
				<port id="1" precision="FP32">
					<dim>384</dim>
					<dim>384</dim>
				</port>
			</output>
		</layer>
		<layer id="162" name="__module.model.backbone.encoder.layer.1.attention.attention.value/aten::linear/MatMul" type="MatMul" version="opset1">
			<data transpose_a="false" transpose_b="true" />
			<input>
				<port id="0" precision="FP32">
					<dim>-1</dim>
					<dim>-1</dim>
					<dim>384</dim>
				</port>
				<port id="1" precision="FP32">
					<dim>384</dim>
					<dim>384</dim>
				</port>
			</input>
			<output>
				<port id="2" precision="FP32">
					<dim>-1</dim>
					<dim>-1</dim>
					<dim>384</dim>
				</port>
			</output>
		</layer>
		<layer id="163" name="Constant_19023_compressed" type="Const" version="opset1">
			<data element_type="f16" shape="1, 1, 384" offset="5943776" size="768" />
			<output>
				<port id="0" precision="FP16">
					<dim>1</dim>
					<dim>1</dim>
					<dim>384</dim>
				</port>
			</output>
		</layer>
		<layer id="164" name="Constant_19023" type="Convert" version="opset1">
			<data destination_type="f32" />
			<rt_info>
				<attribute name="decompression" version="0" />
			</rt_info>
			<input>
				<port id="0" precision="FP16">
					<dim>1</dim>
					<dim>1</dim>
					<dim>384</dim>
				</port>
			</input>
			<output>
				<port id="1" precision="FP32">
					<dim>1</dim>
					<dim>1</dim>
					<dim>384</dim>
				</port>
			</output>
		</layer>
		<layer id="165" name="__module.model.backbone.encoder.layer.1.attention.attention.value/aten::linear/Add" type="Add" version="opset1">
			<data auto_broadcast="numpy" />
			<input>
				<port id="0" precision="FP32">
					<dim>-1</dim>
					<dim>-1</dim>
					<dim>384</dim>
				</port>
				<port id="1" precision="FP32">
					<dim>1</dim>
					<dim>1</dim>
					<dim>384</dim>
				</port>
			</input>
			<output>
				<port id="2" precision="FP32" names="211">
					<dim>-1</dim>
					<dim>-1</dim>
					<dim>384</dim>
				</port>
			</output>
		</layer>
		<layer id="166" name="Constant_19580" type="Const" version="opset1">
			<data element_type="i64" shape="4" offset="1802644" size="32" />
			<rt_info>
				<attribute name="precise" version="0" />
			</rt_info>
			<output>
				<port id="0" precision="I64">
					<dim>4</dim>
				</port>
			</output>
		</layer>
		<layer id="167" name="__module.model.backbone.encoder.layer.1.attention.attention/aten::view/Reshape_2" type="Reshape" version="opset1">
			<data special_zero="true" />
			<input>
				<port id="0" precision="FP32">
					<dim>-1</dim>
					<dim>-1</dim>
					<dim>384</dim>
				</port>
				<port id="1" precision="I64">
					<dim>4</dim>
				</port>
			</input>
			<output>
				<port id="2" precision="FP32" names="213">
					<dim>-1</dim>
					<dim>-1</dim>
					<dim>6</dim>
					<dim>64</dim>
				</port>
			</output>
		</layer>
		<layer id="168" name="__module.model.backbone.encoder.layer.1.attention.attention/aten::transpose/Constant_2" type="Const" version="opset1">
			<data element_type="i32" shape="4" offset="1802676" size="16" />
			<output>
				<port id="0" precision="I32">
					<dim>4</dim>
				</port>
			</output>
		</layer>
		<layer id="169" name="__module.model.backbone.encoder.layer.1.attention.attention/aten::transpose/Transpose_2" type="Transpose" version="opset1">
			<input>
				<port id="0" precision="FP32">
					<dim>-1</dim>
					<dim>-1</dim>
					<dim>6</dim>
					<dim>64</dim>
				</port>
				<port id="1" precision="I32">
					<dim>4</dim>
				</port>
			</input>
			<output>
				<port id="2" precision="FP32" names="214,value.3">
					<dim>-1</dim>
					<dim>6</dim>
					<dim>-1</dim>
					<dim>64</dim>
				</port>
			</output>
		</layer>
		<layer id="170" name="__module.model.backbone.encoder.layer.1.attention.attention/aten::scaled_dot_product_attention/ConvertLike_compressed" type="Const" version="opset1">
			<data element_type="f16" shape="" offset="2394052" size="2" />
			<output>
				<port id="0" precision="FP16" />
			</output>
		</layer>
		<layer id="171" name="__module.model.backbone.encoder.layer.1.attention.attention/aten::scaled_dot_product_attention/ConvertLike" type="Convert" version="opset1">
			<data destination_type="f32" />
			<rt_info>
				<attribute name="decompression" version="0" />
			</rt_info>
			<input>
				<port id="0" precision="FP16" />
			</input>
			<output>
				<port id="1" precision="FP32" />
			</output>
		</layer>
		<layer id="172" name="__module.model.backbone.encoder.layer.1.attention.attention/aten::scaled_dot_product_attention/ScaledDotProductAttention" type="ScaledDotProductAttention" version="opset13">
			<data causal="false" />
			<input>
				<port id="0" precision="FP32">
					<dim>-1</dim>
					<dim>6</dim>
					<dim>-1</dim>
					<dim>64</dim>
				</port>
				<port id="1" precision="FP32">
					<dim>-1</dim>
					<dim>6</dim>
					<dim>-1</dim>
					<dim>64</dim>
				</port>
				<port id="2" precision="FP32">
					<dim>-1</dim>
					<dim>6</dim>
					<dim>-1</dim>
					<dim>64</dim>
				</port>
				<port id="3" precision="FP32" />
				<port id="4" precision="FP32" />
			</input>
			<output>
				<port id="5" precision="FP32" names="221,attn_output.3">
					<dim>-1</dim>
					<dim>6</dim>
					<dim>-1</dim>
					<dim>64</dim>
				</port>
			</output>
		</layer>
		<layer id="173" name="__module.model.backbone.encoder.layer.1.attention.attention/aten::transpose/Constant_3" type="Const" version="opset1">
			<data element_type="i32" shape="4" offset="1802676" size="16" />
			<output>
				<port id="0" precision="I32">
					<dim>4</dim>
				</port>
			</output>
		</layer>
		<layer id="174" name="__module.model.backbone.encoder.layer.1.attention.attention/aten::transpose/Transpose_3" type="Transpose" version="opset1">
			<input>
				<port id="0" precision="FP32">
					<dim>-1</dim>
					<dim>6</dim>
					<dim>-1</dim>
					<dim>64</dim>
				</port>
				<port id="1" precision="I32">
					<dim>4</dim>
				</port>
			</input>
			<output>
				<port id="2" precision="FP32" names="222">
					<dim>-1</dim>
					<dim>-1</dim>
					<dim>6</dim>
					<dim>64</dim>
				</port>
			</output>
		</layer>
		<layer id="175" name="__module.model.backbone.encoder.layer.1.attention.attention/prim::ListConstruct/SequenceMark_3" type="Const" version="opset1">
			<data element_type="i64" shape="3" offset="2394056" size="24" />
			<rt_info>
				<attribute name="precise" version="0" />
			</rt_info>
			<output>
				<port id="0" precision="I64">
					<dim>3</dim>
				</port>
			</output>
		</layer>
		<layer id="176" name="__module.model.backbone.encoder.layer.1.attention.attention/aten::reshape/Reshape" type="Reshape" version="opset1">
			<data special_zero="true" />
			<input>
				<port id="0" precision="FP32">
					<dim>-1</dim>
					<dim>-1</dim>
					<dim>6</dim>
					<dim>64</dim>
				</port>
				<port id="1" precision="I64">
					<dim>3</dim>
				</port>
			</input>
			<output>
				<port id="2" precision="FP32" names="227,input.21">
					<dim>-1</dim>
					<dim>-1</dim>
					<dim>384</dim>
				</port>
			</output>
		</layer>
		<layer id="177" name="self.model.backbone.encoder.layer.1.attention.output.dense.weight_compressed" type="Const" version="opset1">
			<data element_type="f16" shape="384, 384" offset="5944544" size="294912" />
			<output>
				<port id="0" precision="FP16" names="self.model.backbone.encoder.layer.1.attention.output.dense.weight">
					<dim>384</dim>
					<dim>384</dim>
				</port>
			</output>
		</layer>
		<layer id="178" name="self.model.backbone.encoder.layer.1.attention.output.dense.weight" type="Convert" version="opset1">
			<data destination_type="f32" />
			<rt_info>
				<attribute name="decompression" version="0" />
			</rt_info>
			<input>
				<port id="0" precision="FP16">
					<dim>384</dim>
					<dim>384</dim>
				</port>
			</input>
			<output>
				<port id="1" precision="FP32">
					<dim>384</dim>
					<dim>384</dim>
				</port>
			</output>
		</layer>
		<layer id="179" name="__module.model.backbone.encoder.layer.1.attention.output.dense/aten::linear/MatMul" type="MatMul" version="opset1">
			<data transpose_a="false" transpose_b="true" />
			<input>
				<port id="0" precision="FP32">
					<dim>-1</dim>
					<dim>-1</dim>
					<dim>384</dim>
				</port>
				<port id="1" precision="FP32">
					<dim>384</dim>
					<dim>384</dim>
				</port>
			</input>
			<output>
				<port id="2" precision="FP32">
					<dim>-1</dim>
					<dim>-1</dim>
					<dim>384</dim>
				</port>
			</output>
		</layer>
		<layer id="180" name="Constant_19024_compressed" type="Const" version="opset1">
			<data element_type="f16" shape="1, 1, 384" offset="6239456" size="768" />
			<output>
				<port id="0" precision="FP16">
					<dim>1</dim>
					<dim>1</dim>
					<dim>384</dim>
				</port>
			</output>
		</layer>
		<layer id="181" name="Constant_19024" type="Convert" version="opset1">
			<data destination_type="f32" />
			<rt_info>
				<attribute name="decompression" version="0" />
			</rt_info>
			<input>
				<port id="0" precision="FP16">
					<dim>1</dim>
					<dim>1</dim>
					<dim>384</dim>
				</port>
			</input>
			<output>
				<port id="1" precision="FP32">
					<dim>1</dim>
					<dim>1</dim>
					<dim>384</dim>
				</port>
			</output>
		</layer>
		<layer id="182" name="Multiply_18803" type="Multiply" version="opset1">
			<data auto_broadcast="numpy" />
			<input>
				<port id="0" precision="FP32">
					<dim>-1</dim>
					<dim>-1</dim>
					<dim>384</dim>
				</port>
				<port id="1" precision="FP32">
					<dim>1</dim>
					<dim>1</dim>
					<dim>384</dim>
				</port>
			</input>
			<output>
				<port id="2" precision="FP32">
					<dim>-1</dim>
					<dim>-1</dim>
					<dim>384</dim>
				</port>
			</output>
		</layer>
		<layer id="183" name="Constant_19025_compressed" type="Const" version="opset1">
			<data element_type="f16" shape="1, 1, 384" offset="6240224" size="768" />
			<output>
				<port id="0" precision="FP16">
					<dim>1</dim>
					<dim>1</dim>
					<dim>384</dim>
				</port>
			</output>
		</layer>
		<layer id="184" name="Constant_19025" type="Convert" version="opset1">
			<data destination_type="f32" />
			<rt_info>
				<attribute name="decompression" version="0" />
			</rt_info>
			<input>
				<port id="0" precision="FP16">
					<dim>1</dim>
					<dim>1</dim>
					<dim>384</dim>
				</port>
			</input>
			<output>
				<port id="1" precision="FP32">
					<dim>1</dim>
					<dim>1</dim>
					<dim>384</dim>
				</port>
			</output>
		</layer>
		<layer id="185" name="__module.model.backbone.encoder.layer.1.layer_scale1/aten::mul/Multiply" type="Add" version="opset1">
			<data auto_broadcast="numpy" />
			<input>
				<port id="0" precision="FP32">
					<dim>-1</dim>
					<dim>-1</dim>
					<dim>384</dim>
				</port>
				<port id="1" precision="FP32">
					<dim>1</dim>
					<dim>1</dim>
					<dim>384</dim>
				</port>
			</input>
			<output>
				<port id="2" precision="FP32" names="235,self_attention_output.3">
					<dim>-1</dim>
					<dim>-1</dim>
					<dim>384</dim>
				</port>
			</output>
		</layer>
		<layer id="186" name="__module.model.backbone.encoder.layer.1/aten::add/Add" type="Add" version="opset1">
			<data auto_broadcast="numpy" />
			<input>
				<port id="0" precision="FP32">
					<dim>-1</dim>
					<dim>-1</dim>
					<dim>384</dim>
				</port>
				<port id="1" precision="FP32">
					<dim>-1</dim>
					<dim>-1</dim>
					<dim>384</dim>
				</port>
			</input>
			<output>
				<port id="2" precision="FP32" names="236,input.25">
					<dim>-1</dim>
					<dim>-1</dim>
					<dim>384</dim>
				</port>
			</output>
		</layer>
		<layer id="187" name="__module.model.backbone.encoder.layer.1.norm2/aten::layer_norm/Multiply" type="Const" version="opset1">
			<data element_type="i32" shape="1" offset="1504656" size="4" />
			<output>
				<port id="0" precision="I32">
					<dim>1</dim>
				</port>
			</output>
		</layer>
		<layer id="188" name="__module.model.backbone.encoder.layer.1.norm2/aten::layer_norm/MVN" type="MVN" version="opset6">
			<data eps="9.9999999747524271e-07" normalize_variance="true" eps_mode="INSIDE_SQRT" />
			<input>
				<port id="0" precision="FP32">
					<dim>-1</dim>
					<dim>-1</dim>
					<dim>384</dim>
				</port>
				<port id="1" precision="I32">
					<dim>1</dim>
				</port>
			</input>
			<output>
				<port id="2" precision="FP32">
					<dim>-1</dim>
					<dim>-1</dim>
					<dim>384</dim>
				</port>
			</output>
		</layer>
		<layer id="189" name="Constant_19026_compressed" type="Const" version="opset1">
			<data element_type="f16" shape="1, 1, 384" offset="6240992" size="768" />
			<output>
				<port id="0" precision="FP16">
					<dim>1</dim>
					<dim>1</dim>
					<dim>384</dim>
				</port>
			</output>
		</layer>
		<layer id="190" name="Constant_19026" type="Convert" version="opset1">
			<data destination_type="f32" />
			<rt_info>
				<attribute name="decompression" version="0" />
			</rt_info>
			<input>
				<port id="0" precision="FP16">
					<dim>1</dim>
					<dim>1</dim>
					<dim>384</dim>
				</port>
			</input>
			<output>
				<port id="1" precision="FP32">
					<dim>1</dim>
					<dim>1</dim>
					<dim>384</dim>
				</port>
			</output>
		</layer>
		<layer id="191" name="__module.model.backbone.encoder.layer.1.norm2/aten::layer_norm/Multiply_1" type="Multiply" version="opset1">
			<data auto_broadcast="numpy" />
			<input>
				<port id="0" precision="FP32">
					<dim>-1</dim>
					<dim>-1</dim>
					<dim>384</dim>
				</port>
				<port id="1" precision="FP32">
					<dim>1</dim>
					<dim>1</dim>
					<dim>384</dim>
				</port>
			</input>
			<output>
				<port id="2" precision="FP32">
					<dim>-1</dim>
					<dim>-1</dim>
					<dim>384</dim>
				</port>
			</output>
		</layer>
		<layer id="192" name="Constant_19027_compressed" type="Const" version="opset1">
			<data element_type="f16" shape="1, 1, 384" offset="6241760" size="768" />
			<output>
				<port id="0" precision="FP16">
					<dim>1</dim>
					<dim>1</dim>
					<dim>384</dim>
				</port>
			</output>
		</layer>
		<layer id="193" name="Constant_19027" type="Convert" version="opset1">
			<data destination_type="f32" />
			<rt_info>
				<attribute name="decompression" version="0" />
			</rt_info>
			<input>
				<port id="0" precision="FP16">
					<dim>1</dim>
					<dim>1</dim>
					<dim>384</dim>
				</port>
			</input>
			<output>
				<port id="1" precision="FP32">
					<dim>1</dim>
					<dim>1</dim>
					<dim>384</dim>
				</port>
			</output>
		</layer>
		<layer id="194" name="__module.model.backbone.encoder.layer.1.norm2/aten::layer_norm/Add" type="Add" version="opset1">
			<data auto_broadcast="numpy" />
			<input>
				<port id="0" precision="FP32">
					<dim>-1</dim>
					<dim>-1</dim>
					<dim>384</dim>
				</port>
				<port id="1" precision="FP32">
					<dim>1</dim>
					<dim>1</dim>
					<dim>384</dim>
				</port>
			</input>
			<output>
				<port id="2" precision="FP32" names="240,input.27">
					<dim>-1</dim>
					<dim>-1</dim>
					<dim>384</dim>
				</port>
			</output>
		</layer>
		<layer id="195" name="self.model.backbone.encoder.layer.1.mlp.fc1.weight_compressed" type="Const" version="opset1">
			<data element_type="f16" shape="1536, 384" offset="6242528" size="1179648" />
			<output>
				<port id="0" precision="FP16" names="self.model.backbone.encoder.layer.1.mlp.fc1.weight">
					<dim>1536</dim>
					<dim>384</dim>
				</port>
			</output>
		</layer>
		<layer id="196" name="self.model.backbone.encoder.layer.1.mlp.fc1.weight" type="Convert" version="opset1">
			<data destination_type="f32" />
			<rt_info>
				<attribute name="decompression" version="0" />
			</rt_info>
			<input>
				<port id="0" precision="FP16">
					<dim>1536</dim>
					<dim>384</dim>
				</port>
			</input>
			<output>
				<port id="1" precision="FP32">
					<dim>1536</dim>
					<dim>384</dim>
				</port>
			</output>
		</layer>
		<layer id="197" name="__module.model.backbone.encoder.layer.1.mlp.fc1/aten::linear/MatMul" type="MatMul" version="opset1">
			<data transpose_a="false" transpose_b="true" />
			<input>
				<port id="0" precision="FP32">
					<dim>-1</dim>
					<dim>-1</dim>
					<dim>384</dim>
				</port>
				<port id="1" precision="FP32">
					<dim>1536</dim>
					<dim>384</dim>
				</port>
			</input>
			<output>
				<port id="2" precision="FP32">
					<dim>-1</dim>
					<dim>-1</dim>
					<dim>1536</dim>
				</port>
			</output>
		</layer>
		<layer id="198" name="Constant_19028_compressed" type="Const" version="opset1">
			<data element_type="f16" shape="1, 1, 1536" offset="7422176" size="3072" />
			<output>
				<port id="0" precision="FP16">
					<dim>1</dim>
					<dim>1</dim>
					<dim>1536</dim>
				</port>
			</output>
		</layer>
		<layer id="199" name="Constant_19028" type="Convert" version="opset1">
			<data destination_type="f32" />
			<rt_info>
				<attribute name="decompression" version="0" />
			</rt_info>
			<input>
				<port id="0" precision="FP16">
					<dim>1</dim>
					<dim>1</dim>
					<dim>1536</dim>
				</port>
			</input>
			<output>
				<port id="1" precision="FP32">
					<dim>1</dim>
					<dim>1</dim>
					<dim>1536</dim>
				</port>
			</output>
		</layer>
		<layer id="200" name="__module.model.backbone.encoder.layer.1.mlp.fc1/aten::linear/Add" type="Add" version="opset1">
			<data auto_broadcast="numpy" />
			<input>
				<port id="0" precision="FP32">
					<dim>-1</dim>
					<dim>-1</dim>
					<dim>1536</dim>
				</port>
				<port id="1" precision="FP32">
					<dim>1</dim>
					<dim>1</dim>
					<dim>1536</dim>
				</port>
			</input>
			<output>
				<port id="2" precision="FP32" names="246,input.29">
					<dim>-1</dim>
					<dim>-1</dim>
					<dim>1536</dim>
				</port>
			</output>
		</layer>
		<layer id="201" name="__module.model.backbone.encoder.layer.1.mlp.activation/aten::gelu/Gelu" type="Gelu" version="opset7">
			<data approximation_mode="ERF" />
			<input>
				<port id="0" precision="FP32">
					<dim>-1</dim>
					<dim>-1</dim>
					<dim>1536</dim>
				</port>
			</input>
			<output>
				<port id="1" precision="FP32" names="247,input.31">
					<dim>-1</dim>
					<dim>-1</dim>
					<dim>1536</dim>
				</port>
			</output>
		</layer>
		<layer id="202" name="self.model.backbone.encoder.layer.1.mlp.fc2.weight_compressed" type="Const" version="opset1">
			<data element_type="f16" shape="384, 1536" offset="7425248" size="1179648" />
			<output>
				<port id="0" precision="FP16" names="self.model.backbone.encoder.layer.1.mlp.fc2.weight">
					<dim>384</dim>
					<dim>1536</dim>
				</port>
			</output>
		</layer>
		<layer id="203" name="self.model.backbone.encoder.layer.1.mlp.fc2.weight" type="Convert" version="opset1">
			<data destination_type="f32" />
			<rt_info>
				<attribute name="decompression" version="0" />
			</rt_info>
			<input>
				<port id="0" precision="FP16">
					<dim>384</dim>
					<dim>1536</dim>
				</port>
			</input>
			<output>
				<port id="1" precision="FP32">
					<dim>384</dim>
					<dim>1536</dim>
				</port>
			</output>
		</layer>
		<layer id="204" name="__module.model.backbone.encoder.layer.1.mlp.fc2/aten::linear/MatMul" type="MatMul" version="opset1">
			<data transpose_a="false" transpose_b="true" />
			<input>
				<port id="0" precision="FP32">
					<dim>-1</dim>
					<dim>-1</dim>
					<dim>1536</dim>
				</port>
				<port id="1" precision="FP32">
					<dim>384</dim>
					<dim>1536</dim>
				</port>
			</input>
			<output>
				<port id="2" precision="FP32">
					<dim>-1</dim>
					<dim>-1</dim>
					<dim>384</dim>
				</port>
			</output>
		</layer>
		<layer id="205" name="Constant_19029" type="Const" version="opset1">
			<data element_type="f32" shape="1, 1, 384" offset="8604896" size="1536" />
			<output>
				<port id="0" precision="FP32">
					<dim>1</dim>
					<dim>1</dim>
					<dim>384</dim>
				</port>
			</output>
		</layer>
		<layer id="206" name="Multiply_18807" type="Multiply" version="opset1">
			<data auto_broadcast="numpy" />
			<input>
				<port id="0" precision="FP32">
					<dim>-1</dim>
					<dim>-1</dim>
					<dim>384</dim>
				</port>
				<port id="1" precision="FP32">
					<dim>1</dim>
					<dim>1</dim>
					<dim>384</dim>
				</port>
			</input>
			<output>
				<port id="2" precision="FP32">
					<dim>-1</dim>
					<dim>-1</dim>
					<dim>384</dim>
				</port>
			</output>
		</layer>
		<layer id="207" name="Constant_19030_compressed" type="Const" version="opset1">
			<data element_type="f16" shape="1, 1, 384" offset="8606432" size="768" />
			<output>
				<port id="0" precision="FP16">
					<dim>1</dim>
					<dim>1</dim>
					<dim>384</dim>
				</port>
			</output>
		</layer>
		<layer id="208" name="Constant_19030" type="Convert" version="opset1">
			<data destination_type="f32" />
			<rt_info>
				<attribute name="decompression" version="0" />
			</rt_info>
			<input>
				<port id="0" precision="FP16">
					<dim>1</dim>
					<dim>1</dim>
					<dim>384</dim>
				</port>
			</input>
			<output>
				<port id="1" precision="FP32">
					<dim>1</dim>
					<dim>1</dim>
					<dim>384</dim>
				</port>
			</output>
		</layer>
		<layer id="209" name="__module.model.backbone.encoder.layer.1.layer_scale2/aten::mul/Multiply" type="Add" version="opset1">
			<data auto_broadcast="numpy" />
			<input>
				<port id="0" precision="FP32">
					<dim>-1</dim>
					<dim>-1</dim>
					<dim>384</dim>
				</port>
				<port id="1" precision="FP32">
					<dim>1</dim>
					<dim>1</dim>
					<dim>384</dim>
				</port>
			</input>
			<output>
				<port id="2" precision="FP32" names="252,layer_output.3">
					<dim>-1</dim>
					<dim>-1</dim>
					<dim>384</dim>
				</port>
			</output>
		</layer>
		<layer id="210" name="__module.model.backbone.encoder.layer.1/aten::add/Add_1" type="Add" version="opset1">
			<data auto_broadcast="numpy" />
			<input>
				<port id="0" precision="FP32">
					<dim>-1</dim>
					<dim>-1</dim>
					<dim>384</dim>
				</port>
				<port id="1" precision="FP32">
					<dim>-1</dim>
					<dim>-1</dim>
					<dim>384</dim>
				</port>
			</input>
			<output>
				<port id="2" precision="FP32" names="253,input.33">
					<dim>-1</dim>
					<dim>-1</dim>
					<dim>384</dim>
				</port>
			</output>
		</layer>
		<layer id="211" name="__module.model.backbone.encoder.layer.2.norm1/aten::layer_norm/Multiply" type="Const" version="opset1">
			<data element_type="i32" shape="1" offset="1504656" size="4" />
			<output>
				<port id="0" precision="I32">
					<dim>1</dim>
				</port>
			</output>
		</layer>
		<layer id="212" name="__module.model.backbone.encoder.layer.2.norm1/aten::layer_norm/MVN" type="MVN" version="opset6">
			<data eps="9.9999999747524271e-07" normalize_variance="true" eps_mode="INSIDE_SQRT" />
			<input>
				<port id="0" precision="FP32">
					<dim>-1</dim>
					<dim>-1</dim>
					<dim>384</dim>
				</port>
				<port id="1" precision="I32">
					<dim>1</dim>
				</port>
			</input>
			<output>
				<port id="2" precision="FP32">
					<dim>-1</dim>
					<dim>-1</dim>
					<dim>384</dim>
				</port>
			</output>
		</layer>
		<layer id="213" name="Constant_19031_compressed" type="Const" version="opset1">
			<data element_type="f16" shape="1, 1, 384" offset="8607200" size="768" />
			<output>
				<port id="0" precision="FP16">
					<dim>1</dim>
					<dim>1</dim>
					<dim>384</dim>
				</port>
			</output>
		</layer>
		<layer id="214" name="Constant_19031" type="Convert" version="opset1">
			<data destination_type="f32" />
			<rt_info>
				<attribute name="decompression" version="0" />
			</rt_info>
			<input>
				<port id="0" precision="FP16">
					<dim>1</dim>
					<dim>1</dim>
					<dim>384</dim>
				</port>
			</input>
			<output>
				<port id="1" precision="FP32">
					<dim>1</dim>
					<dim>1</dim>
					<dim>384</dim>
				</port>
			</output>
		</layer>
		<layer id="215" name="__module.model.backbone.encoder.layer.2.norm1/aten::layer_norm/Multiply_1" type="Multiply" version="opset1">
			<data auto_broadcast="numpy" />
			<input>
				<port id="0" precision="FP32">
					<dim>-1</dim>
					<dim>-1</dim>
					<dim>384</dim>
				</port>
				<port id="1" precision="FP32">
					<dim>1</dim>
					<dim>1</dim>
					<dim>384</dim>
				</port>
			</input>
			<output>
				<port id="2" precision="FP32">
					<dim>-1</dim>
					<dim>-1</dim>
					<dim>384</dim>
				</port>
			</output>
		</layer>
		<layer id="216" name="Constant_19032_compressed" type="Const" version="opset1">
			<data element_type="f16" shape="1, 1, 384" offset="8607968" size="768" />
			<output>
				<port id="0" precision="FP16">
					<dim>1</dim>
					<dim>1</dim>
					<dim>384</dim>
				</port>
			</output>
		</layer>
		<layer id="217" name="Constant_19032" type="Convert" version="opset1">
			<data destination_type="f32" />
			<rt_info>
				<attribute name="decompression" version="0" />
			</rt_info>
			<input>
				<port id="0" precision="FP16">
					<dim>1</dim>
					<dim>1</dim>
					<dim>384</dim>
				</port>
			</input>
			<output>
				<port id="1" precision="FP32">
					<dim>1</dim>
					<dim>1</dim>
					<dim>384</dim>
				</port>
			</output>
		</layer>
		<layer id="218" name="__module.model.backbone.encoder.layer.2.norm1/aten::layer_norm/Add" type="Add" version="opset1">
			<data auto_broadcast="numpy" />
			<input>
				<port id="0" precision="FP32">
					<dim>-1</dim>
					<dim>-1</dim>
					<dim>384</dim>
				</port>
				<port id="1" precision="FP32">
					<dim>1</dim>
					<dim>1</dim>
					<dim>384</dim>
				</port>
			</input>
			<output>
				<port id="2" precision="FP32" names="264,hidden_states.5">
					<dim>-1</dim>
					<dim>-1</dim>
					<dim>384</dim>
				</port>
			</output>
		</layer>
		<layer id="219" name="self.model.backbone.encoder.layer.2.attention.attention.query.weight_compressed" type="Const" version="opset1">
			<data element_type="f16" shape="384, 384" offset="8608736" size="294912" />
			<output>
				<port id="0" precision="FP16" names="self.model.backbone.encoder.layer.2.attention.attention.query.weight">
					<dim>384</dim>
					<dim>384</dim>
				</port>
			</output>
		</layer>
		<layer id="220" name="self.model.backbone.encoder.layer.2.attention.attention.query.weight" type="Convert" version="opset1">
			<data destination_type="f32" />
			<rt_info>
				<attribute name="decompression" version="0" />
			</rt_info>
			<input>
				<port id="0" precision="FP16">
					<dim>384</dim>
					<dim>384</dim>
				</port>
			</input>
			<output>
				<port id="1" precision="FP32">
					<dim>384</dim>
					<dim>384</dim>
				</port>
			</output>
		</layer>
		<layer id="221" name="__module.model.backbone.encoder.layer.2.attention.attention.query/aten::linear/MatMul" type="MatMul" version="opset1">
			<data transpose_a="false" transpose_b="true" />
			<input>
				<port id="0" precision="FP32">
					<dim>-1</dim>
					<dim>-1</dim>
					<dim>384</dim>
				</port>
				<port id="1" precision="FP32">
					<dim>384</dim>
					<dim>384</dim>
				</port>
			</input>
			<output>
				<port id="2" precision="FP32">
					<dim>-1</dim>
					<dim>-1</dim>
					<dim>384</dim>
				</port>
			</output>
		</layer>
		<layer id="222" name="Constant_19033_compressed" type="Const" version="opset1">
			<data element_type="f16" shape="1, 1, 384" offset="8903648" size="768" />
			<output>
				<port id="0" precision="FP16">
					<dim>1</dim>
					<dim>1</dim>
					<dim>384</dim>
				</port>
			</output>
		</layer>
		<layer id="223" name="Constant_19033" type="Convert" version="opset1">
			<data destination_type="f32" />
			<rt_info>
				<attribute name="decompression" version="0" />
			</rt_info>
			<input>
				<port id="0" precision="FP16">
					<dim>1</dim>
					<dim>1</dim>
					<dim>384</dim>
				</port>
			</input>
			<output>
				<port id="1" precision="FP32">
					<dim>1</dim>
					<dim>1</dim>
					<dim>384</dim>
				</port>
			</output>
		</layer>
		<layer id="224" name="__module.model.backbone.encoder.layer.2.attention.attention.query/aten::linear/Add" type="Add" version="opset1">
			<data auto_broadcast="numpy" />
			<input>
				<port id="0" precision="FP32">
					<dim>-1</dim>
					<dim>-1</dim>
					<dim>384</dim>
				</port>
				<port id="1" precision="FP32">
					<dim>1</dim>
					<dim>1</dim>
					<dim>384</dim>
				</port>
			</input>
			<output>
				<port id="2" precision="FP32" names="285">
					<dim>-1</dim>
					<dim>-1</dim>
					<dim>384</dim>
				</port>
			</output>
		</layer>
		<layer id="225" name="Constant_19581" type="Const" version="opset1">
			<data element_type="i64" shape="4" offset="1802644" size="32" />
			<rt_info>
				<attribute name="precise" version="0" />
			</rt_info>
			<output>
				<port id="0" precision="I64">
					<dim>4</dim>
				</port>
			</output>
		</layer>
		<layer id="226" name="__module.model.backbone.encoder.layer.2.attention.attention/aten::view/Reshape" type="Reshape" version="opset1">
			<data special_zero="true" />
			<input>
				<port id="0" precision="FP32">
					<dim>-1</dim>
					<dim>-1</dim>
					<dim>384</dim>
				</port>
				<port id="1" precision="I64">
					<dim>4</dim>
				</port>
			</input>
			<output>
				<port id="2" precision="FP32" names="287">
					<dim>-1</dim>
					<dim>-1</dim>
					<dim>6</dim>
					<dim>64</dim>
				</port>
			</output>
		</layer>
		<layer id="227" name="__module.model.backbone.encoder.layer.2.attention.attention/aten::transpose/Constant" type="Const" version="opset1">
			<data element_type="i32" shape="4" offset="1802676" size="16" />
			<output>
				<port id="0" precision="I32">
					<dim>4</dim>
				</port>
			</output>
		</layer>
		<layer id="228" name="__module.model.backbone.encoder.layer.2.attention.attention/aten::transpose/Transpose" type="Transpose" version="opset1">
			<input>
				<port id="0" precision="FP32">
					<dim>-1</dim>
					<dim>-1</dim>
					<dim>6</dim>
					<dim>64</dim>
				</port>
				<port id="1" precision="I32">
					<dim>4</dim>
				</port>
			</input>
			<output>
				<port id="2" precision="FP32" names="288,query.5">
					<dim>-1</dim>
					<dim>6</dim>
					<dim>-1</dim>
					<dim>64</dim>
				</port>
			</output>
		</layer>
		<layer id="229" name="self.model.backbone.encoder.layer.2.attention.attention.key.weight_compressed" type="Const" version="opset1">
			<data element_type="f16" shape="384, 384" offset="8904416" size="294912" />
			<output>
				<port id="0" precision="FP16" names="self.model.backbone.encoder.layer.2.attention.attention.key.weight">
					<dim>384</dim>
					<dim>384</dim>
				</port>
			</output>
		</layer>
		<layer id="230" name="self.model.backbone.encoder.layer.2.attention.attention.key.weight" type="Convert" version="opset1">
			<data destination_type="f32" />
			<rt_info>
				<attribute name="decompression" version="0" />
			</rt_info>
			<input>
				<port id="0" precision="FP16">
					<dim>384</dim>
					<dim>384</dim>
				</port>
			</input>
			<output>
				<port id="1" precision="FP32">
					<dim>384</dim>
					<dim>384</dim>
				</port>
			</output>
		</layer>
		<layer id="231" name="__module.model.backbone.encoder.layer.2.attention.attention.key/aten::linear/MatMul" type="MatMul" version="opset1">
			<data transpose_a="false" transpose_b="true" />
			<input>
				<port id="0" precision="FP32">
					<dim>-1</dim>
					<dim>-1</dim>
					<dim>384</dim>
				</port>
				<port id="1" precision="FP32">
					<dim>384</dim>
					<dim>384</dim>
				</port>
			</input>
			<output>
				<port id="2" precision="FP32">
					<dim>-1</dim>
					<dim>-1</dim>
					<dim>384</dim>
				</port>
			</output>
		</layer>
		<layer id="232" name="Constant_19034_compressed" type="Const" version="opset1">
			<data element_type="f16" shape="1, 1, 384" offset="9199328" size="768" />
			<output>
				<port id="0" precision="FP16">
					<dim>1</dim>
					<dim>1</dim>
					<dim>384</dim>
				</port>
			</output>
		</layer>
		<layer id="233" name="Constant_19034" type="Convert" version="opset1">
			<data destination_type="f32" />
			<rt_info>
				<attribute name="decompression" version="0" />
			</rt_info>
			<input>
				<port id="0" precision="FP16">
					<dim>1</dim>
					<dim>1</dim>
					<dim>384</dim>
				</port>
			</input>
			<output>
				<port id="1" precision="FP32">
					<dim>1</dim>
					<dim>1</dim>
					<dim>384</dim>
				</port>
			</output>
		</layer>
		<layer id="234" name="__module.model.backbone.encoder.layer.2.attention.attention.key/aten::linear/Add" type="Add" version="opset1">
			<data auto_broadcast="numpy" />
			<input>
				<port id="0" precision="FP32">
					<dim>-1</dim>
					<dim>-1</dim>
					<dim>384</dim>
				</port>
				<port id="1" precision="FP32">
					<dim>1</dim>
					<dim>1</dim>
					<dim>384</dim>
				</port>
			</input>
			<output>
				<port id="2" precision="FP32" names="273">
					<dim>-1</dim>
					<dim>-1</dim>
					<dim>384</dim>
				</port>
			</output>
		</layer>
		<layer id="235" name="Constant_19582" type="Const" version="opset1">
			<data element_type="i64" shape="4" offset="1802644" size="32" />
			<rt_info>
				<attribute name="precise" version="0" />
			</rt_info>
			<output>
				<port id="0" precision="I64">
					<dim>4</dim>
				</port>
			</output>
		</layer>
		<layer id="236" name="__module.model.backbone.encoder.layer.2.attention.attention/aten::view/Reshape_1" type="Reshape" version="opset1">
			<data special_zero="true" />
			<input>
				<port id="0" precision="FP32">
					<dim>-1</dim>
					<dim>-1</dim>
					<dim>384</dim>
				</port>
				<port id="1" precision="I64">
					<dim>4</dim>
				</port>
			</input>
			<output>
				<port id="2" precision="FP32" names="275">
					<dim>-1</dim>
					<dim>-1</dim>
					<dim>6</dim>
					<dim>64</dim>
				</port>
			</output>
		</layer>
		<layer id="237" name="__module.model.backbone.encoder.layer.2.attention.attention/aten::transpose/Constant_1" type="Const" version="opset1">
			<data element_type="i32" shape="4" offset="1802676" size="16" />
			<output>
				<port id="0" precision="I32">
					<dim>4</dim>
				</port>
			</output>
		</layer>
		<layer id="238" name="__module.model.backbone.encoder.layer.2.attention.attention/aten::transpose/Transpose_1" type="Transpose" version="opset1">
			<input>
				<port id="0" precision="FP32">
					<dim>-1</dim>
					<dim>-1</dim>
					<dim>6</dim>
					<dim>64</dim>
				</port>
				<port id="1" precision="I32">
					<dim>4</dim>
				</port>
			</input>
			<output>
				<port id="2" precision="FP32" names="276,key.5">
					<dim>-1</dim>
					<dim>6</dim>
					<dim>-1</dim>
					<dim>64</dim>
				</port>
			</output>
		</layer>
		<layer id="239" name="self.model.backbone.encoder.layer.2.attention.attention.value.weight_compressed" type="Const" version="opset1">
			<data element_type="f16" shape="384, 384" offset="9200096" size="294912" />
			<output>
				<port id="0" precision="FP16" names="self.model.backbone.encoder.layer.2.attention.attention.value.weight">
					<dim>384</dim>
					<dim>384</dim>
				</port>
			</output>
		</layer>
		<layer id="240" name="self.model.backbone.encoder.layer.2.attention.attention.value.weight" type="Convert" version="opset1">
			<data destination_type="f32" />
			<rt_info>
				<attribute name="decompression" version="0" />
			</rt_info>
			<input>
				<port id="0" precision="FP16">
					<dim>384</dim>
					<dim>384</dim>
				</port>
			</input>
			<output>
				<port id="1" precision="FP32">
					<dim>384</dim>
					<dim>384</dim>
				</port>
			</output>
		</layer>
		<layer id="241" name="__module.model.backbone.encoder.layer.2.attention.attention.value/aten::linear/MatMul" type="MatMul" version="opset1">
			<data transpose_a="false" transpose_b="true" />
			<input>
				<port id="0" precision="FP32">
					<dim>-1</dim>
					<dim>-1</dim>
					<dim>384</dim>
				</port>
				<port id="1" precision="FP32">
					<dim>384</dim>
					<dim>384</dim>
				</port>
			</input>
			<output>
				<port id="2" precision="FP32">
					<dim>-1</dim>
					<dim>-1</dim>
					<dim>384</dim>
				</port>
			</output>
		</layer>
		<layer id="242" name="Constant_19035" type="Const" version="opset1">
			<data element_type="f32" shape="1, 1, 384" offset="9495008" size="1536" />
			<output>
				<port id="0" precision="FP32">
					<dim>1</dim>
					<dim>1</dim>
					<dim>384</dim>
				</port>
			</output>
		</layer>
		<layer id="243" name="__module.model.backbone.encoder.layer.2.attention.attention.value/aten::linear/Add" type="Add" version="opset1">
			<data auto_broadcast="numpy" />
			<input>
				<port id="0" precision="FP32">
					<dim>-1</dim>
					<dim>-1</dim>
					<dim>384</dim>
				</port>
				<port id="1" precision="FP32">
					<dim>1</dim>
					<dim>1</dim>
					<dim>384</dim>
				</port>
			</input>
			<output>
				<port id="2" precision="FP32" names="279">
					<dim>-1</dim>
					<dim>-1</dim>
					<dim>384</dim>
				</port>
			</output>
		</layer>
		<layer id="244" name="Constant_19583" type="Const" version="opset1">
			<data element_type="i64" shape="4" offset="1802644" size="32" />
			<rt_info>
				<attribute name="precise" version="0" />
			</rt_info>
			<output>
				<port id="0" precision="I64">
					<dim>4</dim>
				</port>
			</output>
		</layer>
		<layer id="245" name="__module.model.backbone.encoder.layer.2.attention.attention/aten::view/Reshape_2" type="Reshape" version="opset1">
			<data special_zero="true" />
			<input>
				<port id="0" precision="FP32">
					<dim>-1</dim>
					<dim>-1</dim>
					<dim>384</dim>
				</port>
				<port id="1" precision="I64">
					<dim>4</dim>
				</port>
			</input>
			<output>
				<port id="2" precision="FP32" names="281">
					<dim>-1</dim>
					<dim>-1</dim>
					<dim>6</dim>
					<dim>64</dim>
				</port>
			</output>
		</layer>
		<layer id="246" name="__module.model.backbone.encoder.layer.2.attention.attention/aten::transpose/Constant_2" type="Const" version="opset1">
			<data element_type="i32" shape="4" offset="1802676" size="16" />
			<output>
				<port id="0" precision="I32">
					<dim>4</dim>
				</port>
			</output>
		</layer>
		<layer id="247" name="__module.model.backbone.encoder.layer.2.attention.attention/aten::transpose/Transpose_2" type="Transpose" version="opset1">
			<input>
				<port id="0" precision="FP32">
					<dim>-1</dim>
					<dim>-1</dim>
					<dim>6</dim>
					<dim>64</dim>
				</port>
				<port id="1" precision="I32">
					<dim>4</dim>
				</port>
			</input>
			<output>
				<port id="2" precision="FP32" names="282,value.5">
					<dim>-1</dim>
					<dim>6</dim>
					<dim>-1</dim>
					<dim>64</dim>
				</port>
			</output>
		</layer>
		<layer id="248" name="__module.model.backbone.encoder.layer.2.attention.attention/aten::scaled_dot_product_attention/ConvertLike_compressed" type="Const" version="opset1">
			<data element_type="f16" shape="" offset="2394052" size="2" />
			<output>
				<port id="0" precision="FP16" />
			</output>
		</layer>
		<layer id="249" name="__module.model.backbone.encoder.layer.2.attention.attention/aten::scaled_dot_product_attention/ConvertLike" type="Convert" version="opset1">
			<data destination_type="f32" />
			<rt_info>
				<attribute name="decompression" version="0" />
			</rt_info>
			<input>
				<port id="0" precision="FP16" />
			</input>
			<output>
				<port id="1" precision="FP32" />
			</output>
		</layer>
		<layer id="250" name="__module.model.backbone.encoder.layer.2.attention.attention/aten::scaled_dot_product_attention/ScaledDotProductAttention" type="ScaledDotProductAttention" version="opset13">
			<data causal="false" />
			<input>
				<port id="0" precision="FP32">
					<dim>-1</dim>
					<dim>6</dim>
					<dim>-1</dim>
					<dim>64</dim>
				</port>
				<port id="1" precision="FP32">
					<dim>-1</dim>
					<dim>6</dim>
					<dim>-1</dim>
					<dim>64</dim>
				</port>
				<port id="2" precision="FP32">
					<dim>-1</dim>
					<dim>6</dim>
					<dim>-1</dim>
					<dim>64</dim>
				</port>
				<port id="3" precision="FP32" />
				<port id="4" precision="FP32" />
			</input>
			<output>
				<port id="5" precision="FP32" names="289,attn_output.5">
					<dim>-1</dim>
					<dim>6</dim>
					<dim>-1</dim>
					<dim>64</dim>
				</port>
			</output>
		</layer>
		<layer id="251" name="__module.model.backbone.encoder.layer.2.attention.attention/aten::transpose/Constant_3" type="Const" version="opset1">
			<data element_type="i32" shape="4" offset="1802676" size="16" />
			<output>
				<port id="0" precision="I32">
					<dim>4</dim>
				</port>
			</output>
		</layer>
		<layer id="252" name="__module.model.backbone.encoder.layer.2.attention.attention/aten::transpose/Transpose_3" type="Transpose" version="opset1">
			<input>
				<port id="0" precision="FP32">
					<dim>-1</dim>
					<dim>6</dim>
					<dim>-1</dim>
					<dim>64</dim>
				</port>
				<port id="1" precision="I32">
					<dim>4</dim>
				</port>
			</input>
			<output>
				<port id="2" precision="FP32" names="290">
					<dim>-1</dim>
					<dim>-1</dim>
					<dim>6</dim>
					<dim>64</dim>
				</port>
			</output>
		</layer>
		<layer id="253" name="__module.model.backbone.encoder.layer.2.attention.attention/prim::ListConstruct/SequenceMark_3" type="Const" version="opset1">
			<data element_type="i64" shape="3" offset="2394056" size="24" />
			<rt_info>
				<attribute name="precise" version="0" />
			</rt_info>
			<output>
				<port id="0" precision="I64">
					<dim>3</dim>
				</port>
			</output>
		</layer>
		<layer id="254" name="__module.model.backbone.encoder.layer.2.attention.attention/aten::reshape/Reshape" type="Reshape" version="opset1">
			<data special_zero="true" />
			<input>
				<port id="0" precision="FP32">
					<dim>-1</dim>
					<dim>-1</dim>
					<dim>6</dim>
					<dim>64</dim>
				</port>
				<port id="1" precision="I64">
					<dim>3</dim>
				</port>
			</input>
			<output>
				<port id="2" precision="FP32" names="295,input.35">
					<dim>-1</dim>
					<dim>-1</dim>
					<dim>384</dim>
				</port>
			</output>
		</layer>
		<layer id="255" name="self.model.backbone.encoder.layer.2.attention.output.dense.weight_compressed" type="Const" version="opset1">
			<data element_type="f16" shape="384, 384" offset="9496544" size="294912" />
			<output>
				<port id="0" precision="FP16" names="self.model.backbone.encoder.layer.2.attention.output.dense.weight">
					<dim>384</dim>
					<dim>384</dim>
				</port>
			</output>
		</layer>
		<layer id="256" name="self.model.backbone.encoder.layer.2.attention.output.dense.weight" type="Convert" version="opset1">
			<data destination_type="f32" />
			<rt_info>
				<attribute name="decompression" version="0" />
			</rt_info>
			<input>
				<port id="0" precision="FP16">
					<dim>384</dim>
					<dim>384</dim>
				</port>
			</input>
			<output>
				<port id="1" precision="FP32">
					<dim>384</dim>
					<dim>384</dim>
				</port>
			</output>
		</layer>
		<layer id="257" name="__module.model.backbone.encoder.layer.2.attention.output.dense/aten::linear/MatMul" type="MatMul" version="opset1">
			<data transpose_a="false" transpose_b="true" />
			<input>
				<port id="0" precision="FP32">
					<dim>-1</dim>
					<dim>-1</dim>
					<dim>384</dim>
				</port>
				<port id="1" precision="FP32">
					<dim>384</dim>
					<dim>384</dim>
				</port>
			</input>
			<output>
				<port id="2" precision="FP32">
					<dim>-1</dim>
					<dim>-1</dim>
					<dim>384</dim>
				</port>
			</output>
		</layer>
		<layer id="258" name="Constant_19036_compressed" type="Const" version="opset1">
			<data element_type="f16" shape="1, 1, 384" offset="9791456" size="768" />
			<output>
				<port id="0" precision="FP16">
					<dim>1</dim>
					<dim>1</dim>
					<dim>384</dim>
				</port>
			</output>
		</layer>
		<layer id="259" name="Constant_19036" type="Convert" version="opset1">
			<data destination_type="f32" />
			<rt_info>
				<attribute name="decompression" version="0" />
			</rt_info>
			<input>
				<port id="0" precision="FP16">
					<dim>1</dim>
					<dim>1</dim>
					<dim>384</dim>
				</port>
			</input>
			<output>
				<port id="1" precision="FP32">
					<dim>1</dim>
					<dim>1</dim>
					<dim>384</dim>
				</port>
			</output>
		</layer>
		<layer id="260" name="Multiply_18811" type="Multiply" version="opset1">
			<data auto_broadcast="numpy" />
			<input>
				<port id="0" precision="FP32">
					<dim>-1</dim>
					<dim>-1</dim>
					<dim>384</dim>
				</port>
				<port id="1" precision="FP32">
					<dim>1</dim>
					<dim>1</dim>
					<dim>384</dim>
				</port>
			</input>
			<output>
				<port id="2" precision="FP32">
					<dim>-1</dim>
					<dim>-1</dim>
					<dim>384</dim>
				</port>
			</output>
		</layer>
		<layer id="261" name="Constant_19037_compressed" type="Const" version="opset1">
			<data element_type="f16" shape="1, 1, 384" offset="9792224" size="768" />
			<output>
				<port id="0" precision="FP16">
					<dim>1</dim>
					<dim>1</dim>
					<dim>384</dim>
				</port>
			</output>
		</layer>
		<layer id="262" name="Constant_19037" type="Convert" version="opset1">
			<data destination_type="f32" />
			<rt_info>
				<attribute name="decompression" version="0" />
			</rt_info>
			<input>
				<port id="0" precision="FP16">
					<dim>1</dim>
					<dim>1</dim>
					<dim>384</dim>
				</port>
			</input>
			<output>
				<port id="1" precision="FP32">
					<dim>1</dim>
					<dim>1</dim>
					<dim>384</dim>
				</port>
			</output>
		</layer>
		<layer id="263" name="__module.model.backbone.encoder.layer.2.layer_scale1/aten::mul/Multiply" type="Add" version="opset1">
			<data auto_broadcast="numpy" />
			<input>
				<port id="0" precision="FP32">
					<dim>-1</dim>
					<dim>-1</dim>
					<dim>384</dim>
				</port>
				<port id="1" precision="FP32">
					<dim>1</dim>
					<dim>1</dim>
					<dim>384</dim>
				</port>
			</input>
			<output>
				<port id="2" precision="FP32" names="303,self_attention_output.5">
					<dim>-1</dim>
					<dim>-1</dim>
					<dim>384</dim>
				</port>
			</output>
		</layer>
		<layer id="264" name="__module.model.backbone.encoder.layer.2/aten::add/Add" type="Add" version="opset1">
			<data auto_broadcast="numpy" />
			<input>
				<port id="0" precision="FP32">
					<dim>-1</dim>
					<dim>-1</dim>
					<dim>384</dim>
				</port>
				<port id="1" precision="FP32">
					<dim>-1</dim>
					<dim>-1</dim>
					<dim>384</dim>
				</port>
			</input>
			<output>
				<port id="2" precision="FP32" names="304,input.39">
					<dim>-1</dim>
					<dim>-1</dim>
					<dim>384</dim>
				</port>
			</output>
		</layer>
		<layer id="265" name="__module.model.backbone.encoder.layer.2.norm2/aten::layer_norm/Multiply" type="Const" version="opset1">
			<data element_type="i32" shape="1" offset="1504656" size="4" />
			<output>
				<port id="0" precision="I32">
					<dim>1</dim>
				</port>
			</output>
		</layer>
		<layer id="266" name="__module.model.backbone.encoder.layer.2.norm2/aten::layer_norm/MVN" type="MVN" version="opset6">
			<data eps="9.9999999747524271e-07" normalize_variance="true" eps_mode="INSIDE_SQRT" />
			<input>
				<port id="0" precision="FP32">
					<dim>-1</dim>
					<dim>-1</dim>
					<dim>384</dim>
				</port>
				<port id="1" precision="I32">
					<dim>1</dim>
				</port>
			</input>
			<output>
				<port id="2" precision="FP32">
					<dim>-1</dim>
					<dim>-1</dim>
					<dim>384</dim>
				</port>
			</output>
		</layer>
		<layer id="267" name="Constant_19038_compressed" type="Const" version="opset1">
			<data element_type="f16" shape="1, 1, 384" offset="9792992" size="768" />
			<output>
				<port id="0" precision="FP16">
					<dim>1</dim>
					<dim>1</dim>
					<dim>384</dim>
				</port>
			</output>
		</layer>
		<layer id="268" name="Constant_19038" type="Convert" version="opset1">
			<data destination_type="f32" />
			<rt_info>
				<attribute name="decompression" version="0" />
			</rt_info>
			<input>
				<port id="0" precision="FP16">
					<dim>1</dim>
					<dim>1</dim>
					<dim>384</dim>
				</port>
			</input>
			<output>
				<port id="1" precision="FP32">
					<dim>1</dim>
					<dim>1</dim>
					<dim>384</dim>
				</port>
			</output>
		</layer>
		<layer id="269" name="__module.model.backbone.encoder.layer.2.norm2/aten::layer_norm/Multiply_1" type="Multiply" version="opset1">
			<data auto_broadcast="numpy" />
			<input>
				<port id="0" precision="FP32">
					<dim>-1</dim>
					<dim>-1</dim>
					<dim>384</dim>
				</port>
				<port id="1" precision="FP32">
					<dim>1</dim>
					<dim>1</dim>
					<dim>384</dim>
				</port>
			</input>
			<output>
				<port id="2" precision="FP32">
					<dim>-1</dim>
					<dim>-1</dim>
					<dim>384</dim>
				</port>
			</output>
		</layer>
		<layer id="270" name="Constant_19039_compressed" type="Const" version="opset1">
			<data element_type="f16" shape="1, 1, 384" offset="9793760" size="768" />
			<output>
				<port id="0" precision="FP16">
					<dim>1</dim>
					<dim>1</dim>
					<dim>384</dim>
				</port>
			</output>
		</layer>
		<layer id="271" name="Constant_19039" type="Convert" version="opset1">
			<data destination_type="f32" />
			<rt_info>
				<attribute name="decompression" version="0" />
			</rt_info>
			<input>
				<port id="0" precision="FP16">
					<dim>1</dim>
					<dim>1</dim>
					<dim>384</dim>
				</port>
			</input>
			<output>
				<port id="1" precision="FP32">
					<dim>1</dim>
					<dim>1</dim>
					<dim>384</dim>
				</port>
			</output>
		</layer>
		<layer id="272" name="__module.model.backbone.encoder.layer.2.norm2/aten::layer_norm/Add" type="Add" version="opset1">
			<data auto_broadcast="numpy" />
			<input>
				<port id="0" precision="FP32">
					<dim>-1</dim>
					<dim>-1</dim>
					<dim>384</dim>
				</port>
				<port id="1" precision="FP32">
					<dim>1</dim>
					<dim>1</dim>
					<dim>384</dim>
				</port>
			</input>
			<output>
				<port id="2" precision="FP32" names="308,input.41">
					<dim>-1</dim>
					<dim>-1</dim>
					<dim>384</dim>
				</port>
			</output>
		</layer>
		<layer id="273" name="self.model.backbone.encoder.layer.2.mlp.fc1.weight_compressed" type="Const" version="opset1">
			<data element_type="f16" shape="1536, 384" offset="9794528" size="1179648" />
			<output>
				<port id="0" precision="FP16" names="self.model.backbone.encoder.layer.2.mlp.fc1.weight">
					<dim>1536</dim>
					<dim>384</dim>
				</port>
			</output>
		</layer>
		<layer id="274" name="self.model.backbone.encoder.layer.2.mlp.fc1.weight" type="Convert" version="opset1">
			<data destination_type="f32" />
			<rt_info>
				<attribute name="decompression" version="0" />
			</rt_info>
			<input>
				<port id="0" precision="FP16">
					<dim>1536</dim>
					<dim>384</dim>
				</port>
			</input>
			<output>
				<port id="1" precision="FP32">
					<dim>1536</dim>
					<dim>384</dim>
				</port>
			</output>
		</layer>
		<layer id="275" name="__module.model.backbone.encoder.layer.2.mlp.fc1/aten::linear/MatMul" type="MatMul" version="opset1">
			<data transpose_a="false" transpose_b="true" />
			<input>
				<port id="0" precision="FP32">
					<dim>-1</dim>
					<dim>-1</dim>
					<dim>384</dim>
				</port>
				<port id="1" precision="FP32">
					<dim>1536</dim>
					<dim>384</dim>
				</port>
			</input>
			<output>
				<port id="2" precision="FP32">
					<dim>-1</dim>
					<dim>-1</dim>
					<dim>1536</dim>
				</port>
			</output>
		</layer>
		<layer id="276" name="Constant_19040_compressed" type="Const" version="opset1">
			<data element_type="f16" shape="1, 1, 1536" offset="10974176" size="3072" />
			<output>
				<port id="0" precision="FP16">
					<dim>1</dim>
					<dim>1</dim>
					<dim>1536</dim>
				</port>
			</output>
		</layer>
		<layer id="277" name="Constant_19040" type="Convert" version="opset1">
			<data destination_type="f32" />
			<rt_info>
				<attribute name="decompression" version="0" />
			</rt_info>
			<input>
				<port id="0" precision="FP16">
					<dim>1</dim>
					<dim>1</dim>
					<dim>1536</dim>
				</port>
			</input>
			<output>
				<port id="1" precision="FP32">
					<dim>1</dim>
					<dim>1</dim>
					<dim>1536</dim>
				</port>
			</output>
		</layer>
		<layer id="278" name="__module.model.backbone.encoder.layer.2.mlp.fc1/aten::linear/Add" type="Add" version="opset1">
			<data auto_broadcast="numpy" />
			<input>
				<port id="0" precision="FP32">
					<dim>-1</dim>
					<dim>-1</dim>
					<dim>1536</dim>
				</port>
				<port id="1" precision="FP32">
					<dim>1</dim>
					<dim>1</dim>
					<dim>1536</dim>
				</port>
			</input>
			<output>
				<port id="2" precision="FP32" names="314,input.43">
					<dim>-1</dim>
					<dim>-1</dim>
					<dim>1536</dim>
				</port>
			</output>
		</layer>
		<layer id="279" name="__module.model.backbone.encoder.layer.2.mlp.activation/aten::gelu/Gelu" type="Gelu" version="opset7">
			<data approximation_mode="ERF" />
			<input>
				<port id="0" precision="FP32">
					<dim>-1</dim>
					<dim>-1</dim>
					<dim>1536</dim>
				</port>
			</input>
			<output>
				<port id="1" precision="FP32" names="315,input.45">
					<dim>-1</dim>
					<dim>-1</dim>
					<dim>1536</dim>
				</port>
			</output>
		</layer>
		<layer id="280" name="self.model.backbone.encoder.layer.2.mlp.fc2.weight_compressed" type="Const" version="opset1">
			<data element_type="f16" shape="384, 1536" offset="10977248" size="1179648" />
			<output>
				<port id="0" precision="FP16" names="self.model.backbone.encoder.layer.2.mlp.fc2.weight">
					<dim>384</dim>
					<dim>1536</dim>
				</port>
			</output>
		</layer>
		<layer id="281" name="self.model.backbone.encoder.layer.2.mlp.fc2.weight" type="Convert" version="opset1">
			<data destination_type="f32" />
			<rt_info>
				<attribute name="decompression" version="0" />
			</rt_info>
			<input>
				<port id="0" precision="FP16">
					<dim>384</dim>
					<dim>1536</dim>
				</port>
			</input>
			<output>
				<port id="1" precision="FP32">
					<dim>384</dim>
					<dim>1536</dim>
				</port>
			</output>
		</layer>
		<layer id="282" name="__module.model.backbone.encoder.layer.2.mlp.fc2/aten::linear/MatMul" type="MatMul" version="opset1">
			<data transpose_a="false" transpose_b="true" />
			<input>
				<port id="0" precision="FP32">
					<dim>-1</dim>
					<dim>-1</dim>
					<dim>1536</dim>
				</port>
				<port id="1" precision="FP32">
					<dim>384</dim>
					<dim>1536</dim>
				</port>
			</input>
			<output>
				<port id="2" precision="FP32">
					<dim>-1</dim>
					<dim>-1</dim>
					<dim>384</dim>
				</port>
			</output>
		</layer>
		<layer id="283" name="Constant_19041_compressed" type="Const" version="opset1">
			<data element_type="f16" shape="1, 1, 384" offset="12156896" size="768" />
			<output>
				<port id="0" precision="FP16">
					<dim>1</dim>
					<dim>1</dim>
					<dim>384</dim>
				</port>
			</output>
		</layer>
		<layer id="284" name="Constant_19041" type="Convert" version="opset1">
			<data destination_type="f32" />
			<rt_info>
				<attribute name="decompression" version="0" />
			</rt_info>
			<input>
				<port id="0" precision="FP16">
					<dim>1</dim>
					<dim>1</dim>
					<dim>384</dim>
				</port>
			</input>
			<output>
				<port id="1" precision="FP32">
					<dim>1</dim>
					<dim>1</dim>
					<dim>384</dim>
				</port>
			</output>
		</layer>
		<layer id="285" name="Multiply_18815" type="Multiply" version="opset1">
			<data auto_broadcast="numpy" />
			<input>
				<port id="0" precision="FP32">
					<dim>-1</dim>
					<dim>-1</dim>
					<dim>384</dim>
				</port>
				<port id="1" precision="FP32">
					<dim>1</dim>
					<dim>1</dim>
					<dim>384</dim>
				</port>
			</input>
			<output>
				<port id="2" precision="FP32">
					<dim>-1</dim>
					<dim>-1</dim>
					<dim>384</dim>
				</port>
			</output>
		</layer>
		<layer id="286" name="Constant_19042_compressed" type="Const" version="opset1">
			<data element_type="f16" shape="1, 1, 384" offset="12157664" size="768" />
			<output>
				<port id="0" precision="FP16">
					<dim>1</dim>
					<dim>1</dim>
					<dim>384</dim>
				</port>
			</output>
		</layer>
		<layer id="287" name="Constant_19042" type="Convert" version="opset1">
			<data destination_type="f32" />
			<rt_info>
				<attribute name="decompression" version="0" />
			</rt_info>
			<input>
				<port id="0" precision="FP16">
					<dim>1</dim>
					<dim>1</dim>
					<dim>384</dim>
				</port>
			</input>
			<output>
				<port id="1" precision="FP32">
					<dim>1</dim>
					<dim>1</dim>
					<dim>384</dim>
				</port>
			</output>
		</layer>
		<layer id="288" name="__module.model.backbone.encoder.layer.2.layer_scale2/aten::mul/Multiply" type="Add" version="opset1">
			<data auto_broadcast="numpy" />
			<input>
				<port id="0" precision="FP32">
					<dim>-1</dim>
					<dim>-1</dim>
					<dim>384</dim>
				</port>
				<port id="1" precision="FP32">
					<dim>1</dim>
					<dim>1</dim>
					<dim>384</dim>
				</port>
			</input>
			<output>
				<port id="2" precision="FP32" names="320,layer_output.5">
					<dim>-1</dim>
					<dim>-1</dim>
					<dim>384</dim>
				</port>
			</output>
		</layer>
		<layer id="289" name="__module.model.backbone.encoder.layer.2/aten::add/Add_1" type="Add" version="opset1">
			<data auto_broadcast="numpy" />
			<input>
				<port id="0" precision="FP32">
					<dim>-1</dim>
					<dim>-1</dim>
					<dim>384</dim>
				</port>
				<port id="1" precision="FP32">
					<dim>-1</dim>
					<dim>-1</dim>
					<dim>384</dim>
				</port>
			</input>
			<output>
				<port id="2" precision="FP32" names="321,input.47">
					<dim>-1</dim>
					<dim>-1</dim>
					<dim>384</dim>
				</port>
			</output>
		</layer>
		<layer id="290" name="__module.model.backbone.encoder.layer.3.norm1/aten::layer_norm/Multiply" type="Const" version="opset1">
			<data element_type="i32" shape="1" offset="1504656" size="4" />
			<output>
				<port id="0" precision="I32">
					<dim>1</dim>
				</port>
			</output>
		</layer>
		<layer id="291" name="__module.model.backbone.encoder.layer.3.norm1/aten::layer_norm/MVN" type="MVN" version="opset6">
			<data eps="9.9999999747524271e-07" normalize_variance="true" eps_mode="INSIDE_SQRT" />
			<input>
				<port id="0" precision="FP32">
					<dim>-1</dim>
					<dim>-1</dim>
					<dim>384</dim>
				</port>
				<port id="1" precision="I32">
					<dim>1</dim>
				</port>
			</input>
			<output>
				<port id="2" precision="FP32">
					<dim>-1</dim>
					<dim>-1</dim>
					<dim>384</dim>
				</port>
			</output>
		</layer>
		<layer id="292" name="Constant_19043_compressed" type="Const" version="opset1">
			<data element_type="f16" shape="1, 1, 384" offset="12158432" size="768" />
			<output>
				<port id="0" precision="FP16">
					<dim>1</dim>
					<dim>1</dim>
					<dim>384</dim>
				</port>
			</output>
		</layer>
		<layer id="293" name="Constant_19043" type="Convert" version="opset1">
			<data destination_type="f32" />
			<rt_info>
				<attribute name="decompression" version="0" />
			</rt_info>
			<input>
				<port id="0" precision="FP16">
					<dim>1</dim>
					<dim>1</dim>
					<dim>384</dim>
				</port>
			</input>
			<output>
				<port id="1" precision="FP32">
					<dim>1</dim>
					<dim>1</dim>
					<dim>384</dim>
				</port>
			</output>
		</layer>
		<layer id="294" name="__module.model.backbone.encoder.layer.3.norm1/aten::layer_norm/Multiply_1" type="Multiply" version="opset1">
			<data auto_broadcast="numpy" />
			<input>
				<port id="0" precision="FP32">
					<dim>-1</dim>
					<dim>-1</dim>
					<dim>384</dim>
				</port>
				<port id="1" precision="FP32">
					<dim>1</dim>
					<dim>1</dim>
					<dim>384</dim>
				</port>
			</input>
			<output>
				<port id="2" precision="FP32">
					<dim>-1</dim>
					<dim>-1</dim>
					<dim>384</dim>
				</port>
			</output>
		</layer>
		<layer id="295" name="Constant_19044" type="Const" version="opset1">
			<data element_type="f32" shape="1, 1, 384" offset="12159200" size="1536" />
			<output>
				<port id="0" precision="FP32">
					<dim>1</dim>
					<dim>1</dim>
					<dim>384</dim>
				</port>
			</output>
		</layer>
		<layer id="296" name="__module.model.backbone.encoder.layer.3.norm1/aten::layer_norm/Add" type="Add" version="opset1">
			<data auto_broadcast="numpy" />
			<input>
				<port id="0" precision="FP32">
					<dim>-1</dim>
					<dim>-1</dim>
					<dim>384</dim>
				</port>
				<port id="1" precision="FP32">
					<dim>1</dim>
					<dim>1</dim>
					<dim>384</dim>
				</port>
			</input>
			<output>
				<port id="2" precision="FP32" names="332,hidden_states.7">
					<dim>-1</dim>
					<dim>-1</dim>
					<dim>384</dim>
				</port>
			</output>
		</layer>
		<layer id="297" name="self.model.backbone.encoder.layer.3.attention.attention.query.weight_compressed" type="Const" version="opset1">
			<data element_type="f16" shape="384, 384" offset="12160736" size="294912" />
			<output>
				<port id="0" precision="FP16" names="self.model.backbone.encoder.layer.3.attention.attention.query.weight">
					<dim>384</dim>
					<dim>384</dim>
				</port>
			</output>
		</layer>
		<layer id="298" name="self.model.backbone.encoder.layer.3.attention.attention.query.weight" type="Convert" version="opset1">
			<data destination_type="f32" />
			<rt_info>
				<attribute name="decompression" version="0" />
			</rt_info>
			<input>
				<port id="0" precision="FP16">
					<dim>384</dim>
					<dim>384</dim>
				</port>
			</input>
			<output>
				<port id="1" precision="FP32">
					<dim>384</dim>
					<dim>384</dim>
				</port>
			</output>
		</layer>
		<layer id="299" name="__module.model.backbone.encoder.layer.3.attention.attention.query/aten::linear/MatMul" type="MatMul" version="opset1">
			<data transpose_a="false" transpose_b="true" />
			<input>
				<port id="0" precision="FP32">
					<dim>-1</dim>
					<dim>-1</dim>
					<dim>384</dim>
				</port>
				<port id="1" precision="FP32">
					<dim>384</dim>
					<dim>384</dim>
				</port>
			</input>
			<output>
				<port id="2" precision="FP32">
					<dim>-1</dim>
					<dim>-1</dim>
					<dim>384</dim>
				</port>
			</output>
		</layer>
		<layer id="300" name="Constant_19045_compressed" type="Const" version="opset1">
			<data element_type="f16" shape="1, 1, 384" offset="12455648" size="768" />
			<output>
				<port id="0" precision="FP16">
					<dim>1</dim>
					<dim>1</dim>
					<dim>384</dim>
				</port>
			</output>
		</layer>
		<layer id="301" name="Constant_19045" type="Convert" version="opset1">
			<data destination_type="f32" />
			<rt_info>
				<attribute name="decompression" version="0" />
			</rt_info>
			<input>
				<port id="0" precision="FP16">
					<dim>1</dim>
					<dim>1</dim>
					<dim>384</dim>
				</port>
			</input>
			<output>
				<port id="1" precision="FP32">
					<dim>1</dim>
					<dim>1</dim>
					<dim>384</dim>
				</port>
			</output>
		</layer>
		<layer id="302" name="__module.model.backbone.encoder.layer.3.attention.attention.query/aten::linear/Add" type="Add" version="opset1">
			<data auto_broadcast="numpy" />
			<input>
				<port id="0" precision="FP32">
					<dim>-1</dim>
					<dim>-1</dim>
					<dim>384</dim>
				</port>
				<port id="1" precision="FP32">
					<dim>1</dim>
					<dim>1</dim>
					<dim>384</dim>
				</port>
			</input>
			<output>
				<port id="2" precision="FP32" names="353">
					<dim>-1</dim>
					<dim>-1</dim>
					<dim>384</dim>
				</port>
			</output>
		</layer>
		<layer id="303" name="Constant_19584" type="Const" version="opset1">
			<data element_type="i64" shape="4" offset="1802644" size="32" />
			<rt_info>
				<attribute name="precise" version="0" />
			</rt_info>
			<output>
				<port id="0" precision="I64">
					<dim>4</dim>
				</port>
			</output>
		</layer>
		<layer id="304" name="__module.model.backbone.encoder.layer.3.attention.attention/aten::view/Reshape" type="Reshape" version="opset1">
			<data special_zero="true" />
			<input>
				<port id="0" precision="FP32">
					<dim>-1</dim>
					<dim>-1</dim>
					<dim>384</dim>
				</port>
				<port id="1" precision="I64">
					<dim>4</dim>
				</port>
			</input>
			<output>
				<port id="2" precision="FP32" names="355">
					<dim>-1</dim>
					<dim>-1</dim>
					<dim>6</dim>
					<dim>64</dim>
				</port>
			</output>
		</layer>
		<layer id="305" name="__module.model.backbone.encoder.layer.3.attention.attention/aten::transpose/Constant" type="Const" version="opset1">
			<data element_type="i32" shape="4" offset="1802676" size="16" />
			<output>
				<port id="0" precision="I32">
					<dim>4</dim>
				</port>
			</output>
		</layer>
		<layer id="306" name="__module.model.backbone.encoder.layer.3.attention.attention/aten::transpose/Transpose" type="Transpose" version="opset1">
			<input>
				<port id="0" precision="FP32">
					<dim>-1</dim>
					<dim>-1</dim>
					<dim>6</dim>
					<dim>64</dim>
				</port>
				<port id="1" precision="I32">
					<dim>4</dim>
				</port>
			</input>
			<output>
				<port id="2" precision="FP32" names="356,query.7">
					<dim>-1</dim>
					<dim>6</dim>
					<dim>-1</dim>
					<dim>64</dim>
				</port>
			</output>
		</layer>
		<layer id="307" name="self.model.backbone.encoder.layer.3.attention.attention.key.weight_compressed" type="Const" version="opset1">
			<data element_type="f16" shape="384, 384" offset="12456416" size="294912" />
			<output>
				<port id="0" precision="FP16" names="self.model.backbone.encoder.layer.3.attention.attention.key.weight">
					<dim>384</dim>
					<dim>384</dim>
				</port>
			</output>
		</layer>
		<layer id="308" name="self.model.backbone.encoder.layer.3.attention.attention.key.weight" type="Convert" version="opset1">
			<data destination_type="f32" />
			<rt_info>
				<attribute name="decompression" version="0" />
			</rt_info>
			<input>
				<port id="0" precision="FP16">
					<dim>384</dim>
					<dim>384</dim>
				</port>
			</input>
			<output>
				<port id="1" precision="FP32">
					<dim>384</dim>
					<dim>384</dim>
				</port>
			</output>
		</layer>
		<layer id="309" name="__module.model.backbone.encoder.layer.3.attention.attention.key/aten::linear/MatMul" type="MatMul" version="opset1">
			<data transpose_a="false" transpose_b="true" />
			<input>
				<port id="0" precision="FP32">
					<dim>-1</dim>
					<dim>-1</dim>
					<dim>384</dim>
				</port>
				<port id="1" precision="FP32">
					<dim>384</dim>
					<dim>384</dim>
				</port>
			</input>
			<output>
				<port id="2" precision="FP32">
					<dim>-1</dim>
					<dim>-1</dim>
					<dim>384</dim>
				</port>
			</output>
		</layer>
		<layer id="310" name="Constant_19046_compressed" type="Const" version="opset1">
			<data element_type="f16" shape="1, 1, 384" offset="12751328" size="768" />
			<output>
				<port id="0" precision="FP16">
					<dim>1</dim>
					<dim>1</dim>
					<dim>384</dim>
				</port>
			</output>
		</layer>
		<layer id="311" name="Constant_19046" type="Convert" version="opset1">
			<data destination_type="f32" />
			<rt_info>
				<attribute name="decompression" version="0" />
			</rt_info>
			<input>
				<port id="0" precision="FP16">
					<dim>1</dim>
					<dim>1</dim>
					<dim>384</dim>
				</port>
			</input>
			<output>
				<port id="1" precision="FP32">
					<dim>1</dim>
					<dim>1</dim>
					<dim>384</dim>
				</port>
			</output>
		</layer>
		<layer id="312" name="__module.model.backbone.encoder.layer.3.attention.attention.key/aten::linear/Add" type="Add" version="opset1">
			<data auto_broadcast="numpy" />
			<input>
				<port id="0" precision="FP32">
					<dim>-1</dim>
					<dim>-1</dim>
					<dim>384</dim>
				</port>
				<port id="1" precision="FP32">
					<dim>1</dim>
					<dim>1</dim>
					<dim>384</dim>
				</port>
			</input>
			<output>
				<port id="2" precision="FP32" names="341">
					<dim>-1</dim>
					<dim>-1</dim>
					<dim>384</dim>
				</port>
			</output>
		</layer>
		<layer id="313" name="Constant_19585" type="Const" version="opset1">
			<data element_type="i64" shape="4" offset="1802644" size="32" />
			<rt_info>
				<attribute name="precise" version="0" />
			</rt_info>
			<output>
				<port id="0" precision="I64">
					<dim>4</dim>
				</port>
			</output>
		</layer>
		<layer id="314" name="__module.model.backbone.encoder.layer.3.attention.attention/aten::view/Reshape_1" type="Reshape" version="opset1">
			<data special_zero="true" />
			<input>
				<port id="0" precision="FP32">
					<dim>-1</dim>
					<dim>-1</dim>
					<dim>384</dim>
				</port>
				<port id="1" precision="I64">
					<dim>4</dim>
				</port>
			</input>
			<output>
				<port id="2" precision="FP32" names="343">
					<dim>-1</dim>
					<dim>-1</dim>
					<dim>6</dim>
					<dim>64</dim>
				</port>
			</output>
		</layer>
		<layer id="315" name="__module.model.backbone.encoder.layer.3.attention.attention/aten::transpose/Constant_1" type="Const" version="opset1">
			<data element_type="i32" shape="4" offset="1802676" size="16" />
			<output>
				<port id="0" precision="I32">
					<dim>4</dim>
				</port>
			</output>
		</layer>
		<layer id="316" name="__module.model.backbone.encoder.layer.3.attention.attention/aten::transpose/Transpose_1" type="Transpose" version="opset1">
			<input>
				<port id="0" precision="FP32">
					<dim>-1</dim>
					<dim>-1</dim>
					<dim>6</dim>
					<dim>64</dim>
				</port>
				<port id="1" precision="I32">
					<dim>4</dim>
				</port>
			</input>
			<output>
				<port id="2" precision="FP32" names="344,key.7">
					<dim>-1</dim>
					<dim>6</dim>
					<dim>-1</dim>
					<dim>64</dim>
				</port>
			</output>
		</layer>
		<layer id="317" name="self.model.backbone.encoder.layer.3.attention.attention.value.weight_compressed" type="Const" version="opset1">
			<data element_type="f16" shape="384, 384" offset="12752096" size="294912" />
			<output>
				<port id="0" precision="FP16" names="self.model.backbone.encoder.layer.3.attention.attention.value.weight">
					<dim>384</dim>
					<dim>384</dim>
				</port>
			</output>
		</layer>
		<layer id="318" name="self.model.backbone.encoder.layer.3.attention.attention.value.weight" type="Convert" version="opset1">
			<data destination_type="f32" />
			<rt_info>
				<attribute name="decompression" version="0" />
			</rt_info>
			<input>
				<port id="0" precision="FP16">
					<dim>384</dim>
					<dim>384</dim>
				</port>
			</input>
			<output>
				<port id="1" precision="FP32">
					<dim>384</dim>
					<dim>384</dim>
				</port>
			</output>
		</layer>
		<layer id="319" name="__module.model.backbone.encoder.layer.3.attention.attention.value/aten::linear/MatMul" type="MatMul" version="opset1">
			<data transpose_a="false" transpose_b="true" />
			<input>
				<port id="0" precision="FP32">
					<dim>-1</dim>
					<dim>-1</dim>
					<dim>384</dim>
				</port>
				<port id="1" precision="FP32">
					<dim>384</dim>
					<dim>384</dim>
				</port>
			</input>
			<output>
				<port id="2" precision="FP32">
					<dim>-1</dim>
					<dim>-1</dim>
					<dim>384</dim>
				</port>
			</output>
		</layer>
		<layer id="320" name="Constant_19047_compressed" type="Const" version="opset1">
			<data element_type="f16" shape="1, 1, 384" offset="13047008" size="768" />
			<output>
				<port id="0" precision="FP16">
					<dim>1</dim>
					<dim>1</dim>
					<dim>384</dim>
				</port>
			</output>
		</layer>
		<layer id="321" name="Constant_19047" type="Convert" version="opset1">
			<data destination_type="f32" />
			<rt_info>
				<attribute name="decompression" version="0" />
			</rt_info>
			<input>
				<port id="0" precision="FP16">
					<dim>1</dim>
					<dim>1</dim>
					<dim>384</dim>
				</port>
			</input>
			<output>
				<port id="1" precision="FP32">
					<dim>1</dim>
					<dim>1</dim>
					<dim>384</dim>
				</port>
			</output>
		</layer>
		<layer id="322" name="__module.model.backbone.encoder.layer.3.attention.attention.value/aten::linear/Add" type="Add" version="opset1">
			<data auto_broadcast="numpy" />
			<input>
				<port id="0" precision="FP32">
					<dim>-1</dim>
					<dim>-1</dim>
					<dim>384</dim>
				</port>
				<port id="1" precision="FP32">
					<dim>1</dim>
					<dim>1</dim>
					<dim>384</dim>
				</port>
			</input>
			<output>
				<port id="2" precision="FP32" names="347">
					<dim>-1</dim>
					<dim>-1</dim>
					<dim>384</dim>
				</port>
			</output>
		</layer>
		<layer id="323" name="Constant_19586" type="Const" version="opset1">
			<data element_type="i64" shape="4" offset="1802644" size="32" />
			<rt_info>
				<attribute name="precise" version="0" />
			</rt_info>
			<output>
				<port id="0" precision="I64">
					<dim>4</dim>
				</port>
			</output>
		</layer>
		<layer id="324" name="__module.model.backbone.encoder.layer.3.attention.attention/aten::view/Reshape_2" type="Reshape" version="opset1">
			<data special_zero="true" />
			<input>
				<port id="0" precision="FP32">
					<dim>-1</dim>
					<dim>-1</dim>
					<dim>384</dim>
				</port>
				<port id="1" precision="I64">
					<dim>4</dim>
				</port>
			</input>
			<output>
				<port id="2" precision="FP32" names="349">
					<dim>-1</dim>
					<dim>-1</dim>
					<dim>6</dim>
					<dim>64</dim>
				</port>
			</output>
		</layer>
		<layer id="325" name="__module.model.backbone.encoder.layer.3.attention.attention/aten::transpose/Constant_2" type="Const" version="opset1">
			<data element_type="i32" shape="4" offset="1802676" size="16" />
			<output>
				<port id="0" precision="I32">
					<dim>4</dim>
				</port>
			</output>
		</layer>
		<layer id="326" name="__module.model.backbone.encoder.layer.3.attention.attention/aten::transpose/Transpose_2" type="Transpose" version="opset1">
			<input>
				<port id="0" precision="FP32">
					<dim>-1</dim>
					<dim>-1</dim>
					<dim>6</dim>
					<dim>64</dim>
				</port>
				<port id="1" precision="I32">
					<dim>4</dim>
				</port>
			</input>
			<output>
				<port id="2" precision="FP32" names="350,value.7">
					<dim>-1</dim>
					<dim>6</dim>
					<dim>-1</dim>
					<dim>64</dim>
				</port>
			</output>
		</layer>
		<layer id="327" name="__module.model.backbone.encoder.layer.3.attention.attention/aten::scaled_dot_product_attention/ConvertLike_compressed" type="Const" version="opset1">
			<data element_type="f16" shape="" offset="2394052" size="2" />
			<output>
				<port id="0" precision="FP16" />
			</output>
		</layer>
		<layer id="328" name="__module.model.backbone.encoder.layer.3.attention.attention/aten::scaled_dot_product_attention/ConvertLike" type="Convert" version="opset1">
			<data destination_type="f32" />
			<rt_info>
				<attribute name="decompression" version="0" />
			</rt_info>
			<input>
				<port id="0" precision="FP16" />
			</input>
			<output>
				<port id="1" precision="FP32" />
			</output>
		</layer>
		<layer id="329" name="__module.model.backbone.encoder.layer.3.attention.attention/aten::scaled_dot_product_attention/ScaledDotProductAttention" type="ScaledDotProductAttention" version="opset13">
			<data causal="false" />
			<input>
				<port id="0" precision="FP32">
					<dim>-1</dim>
					<dim>6</dim>
					<dim>-1</dim>
					<dim>64</dim>
				</port>
				<port id="1" precision="FP32">
					<dim>-1</dim>
					<dim>6</dim>
					<dim>-1</dim>
					<dim>64</dim>
				</port>
				<port id="2" precision="FP32">
					<dim>-1</dim>
					<dim>6</dim>
					<dim>-1</dim>
					<dim>64</dim>
				</port>
				<port id="3" precision="FP32" />
				<port id="4" precision="FP32" />
			</input>
			<output>
				<port id="5" precision="FP32" names="357,attn_output.7">
					<dim>-1</dim>
					<dim>6</dim>
					<dim>-1</dim>
					<dim>64</dim>
				</port>
			</output>
		</layer>
		<layer id="330" name="__module.model.backbone.encoder.layer.3.attention.attention/aten::transpose/Constant_3" type="Const" version="opset1">
			<data element_type="i32" shape="4" offset="1802676" size="16" />
			<output>
				<port id="0" precision="I32">
					<dim>4</dim>
				</port>
			</output>
		</layer>
		<layer id="331" name="__module.model.backbone.encoder.layer.3.attention.attention/aten::transpose/Transpose_3" type="Transpose" version="opset1">
			<input>
				<port id="0" precision="FP32">
					<dim>-1</dim>
					<dim>6</dim>
					<dim>-1</dim>
					<dim>64</dim>
				</port>
				<port id="1" precision="I32">
					<dim>4</dim>
				</port>
			</input>
			<output>
				<port id="2" precision="FP32" names="358">
					<dim>-1</dim>
					<dim>-1</dim>
					<dim>6</dim>
					<dim>64</dim>
				</port>
			</output>
		</layer>
		<layer id="332" name="__module.model.backbone.encoder.layer.3.attention.attention/prim::ListConstruct/SequenceMark_3" type="Const" version="opset1">
			<data element_type="i64" shape="3" offset="2394056" size="24" />
			<rt_info>
				<attribute name="precise" version="0" />
			</rt_info>
			<output>
				<port id="0" precision="I64">
					<dim>3</dim>
				</port>
			</output>
		</layer>
		<layer id="333" name="__module.model.backbone.encoder.layer.3.attention.attention/aten::reshape/Reshape" type="Reshape" version="opset1">
			<data special_zero="true" />
			<input>
				<port id="0" precision="FP32">
					<dim>-1</dim>
					<dim>-1</dim>
					<dim>6</dim>
					<dim>64</dim>
				</port>
				<port id="1" precision="I64">
					<dim>3</dim>
				</port>
			</input>
			<output>
				<port id="2" precision="FP32" names="363,input.49">
					<dim>-1</dim>
					<dim>-1</dim>
					<dim>384</dim>
				</port>
			</output>
		</layer>
		<layer id="334" name="self.model.backbone.encoder.layer.3.attention.output.dense.weight_compressed" type="Const" version="opset1">
			<data element_type="f16" shape="384, 384" offset="13047776" size="294912" />
			<output>
				<port id="0" precision="FP16" names="self.model.backbone.encoder.layer.3.attention.output.dense.weight">
					<dim>384</dim>
					<dim>384</dim>
				</port>
			</output>
		</layer>
		<layer id="335" name="self.model.backbone.encoder.layer.3.attention.output.dense.weight" type="Convert" version="opset1">
			<data destination_type="f32" />
			<rt_info>
				<attribute name="decompression" version="0" />
			</rt_info>
			<input>
				<port id="0" precision="FP16">
					<dim>384</dim>
					<dim>384</dim>
				</port>
			</input>
			<output>
				<port id="1" precision="FP32">
					<dim>384</dim>
					<dim>384</dim>
				</port>
			</output>
		</layer>
		<layer id="336" name="__module.model.backbone.encoder.layer.3.attention.output.dense/aten::linear/MatMul" type="MatMul" version="opset1">
			<data transpose_a="false" transpose_b="true" />
			<input>
				<port id="0" precision="FP32">
					<dim>-1</dim>
					<dim>-1</dim>
					<dim>384</dim>
				</port>
				<port id="1" precision="FP32">
					<dim>384</dim>
					<dim>384</dim>
				</port>
			</input>
			<output>
				<port id="2" precision="FP32">
					<dim>-1</dim>
					<dim>-1</dim>
					<dim>384</dim>
				</port>
			</output>
		</layer>
		<layer id="337" name="Constant_19048_compressed" type="Const" version="opset1">
			<data element_type="f16" shape="1, 1, 384" offset="13342688" size="768" />
			<output>
				<port id="0" precision="FP16">
					<dim>1</dim>
					<dim>1</dim>
					<dim>384</dim>
				</port>
			</output>
		</layer>
		<layer id="338" name="Constant_19048" type="Convert" version="opset1">
			<data destination_type="f32" />
			<rt_info>
				<attribute name="decompression" version="0" />
			</rt_info>
			<input>
				<port id="0" precision="FP16">
					<dim>1</dim>
					<dim>1</dim>
					<dim>384</dim>
				</port>
			</input>
			<output>
				<port id="1" precision="FP32">
					<dim>1</dim>
					<dim>1</dim>
					<dim>384</dim>
				</port>
			</output>
		</layer>
		<layer id="339" name="Multiply_18819" type="Multiply" version="opset1">
			<data auto_broadcast="numpy" />
			<input>
				<port id="0" precision="FP32">
					<dim>-1</dim>
					<dim>-1</dim>
					<dim>384</dim>
				</port>
				<port id="1" precision="FP32">
					<dim>1</dim>
					<dim>1</dim>
					<dim>384</dim>
				</port>
			</input>
			<output>
				<port id="2" precision="FP32">
					<dim>-1</dim>
					<dim>-1</dim>
					<dim>384</dim>
				</port>
			</output>
		</layer>
		<layer id="340" name="Constant_19049_compressed" type="Const" version="opset1">
			<data element_type="f16" shape="1, 1, 384" offset="13343456" size="768" />
			<output>
				<port id="0" precision="FP16">
					<dim>1</dim>
					<dim>1</dim>
					<dim>384</dim>
				</port>
			</output>
		</layer>
		<layer id="341" name="Constant_19049" type="Convert" version="opset1">
			<data destination_type="f32" />
			<rt_info>
				<attribute name="decompression" version="0" />
			</rt_info>
			<input>
				<port id="0" precision="FP16">
					<dim>1</dim>
					<dim>1</dim>
					<dim>384</dim>
				</port>
			</input>
			<output>
				<port id="1" precision="FP32">
					<dim>1</dim>
					<dim>1</dim>
					<dim>384</dim>
				</port>
			</output>
		</layer>
		<layer id="342" name="__module.model.backbone.encoder.layer.3.layer_scale1/aten::mul/Multiply" type="Add" version="opset1">
			<data auto_broadcast="numpy" />
			<input>
				<port id="0" precision="FP32">
					<dim>-1</dim>
					<dim>-1</dim>
					<dim>384</dim>
				</port>
				<port id="1" precision="FP32">
					<dim>1</dim>
					<dim>1</dim>
					<dim>384</dim>
				</port>
			</input>
			<output>
				<port id="2" precision="FP32" names="371,self_attention_output.7">
					<dim>-1</dim>
					<dim>-1</dim>
					<dim>384</dim>
				</port>
			</output>
		</layer>
…
		<edge from-layer="609" from-port="1" to-layer="610" to-port="1" />
		<edge from-layer="610" from-port="2" to-layer="633" to-port="0" />
		<edge from-layer="610" from-port="2" to-layer="623" to-port="0" />
		<edge from-layer="610" from-port="2" to-layer="613" to-port="0" />
		<edge from-layer="611" from-port="0" to-layer="612" to-port="0" />
		<edge from-layer="612" from-port="1" to-layer="613" to-port="1" />
		<edge from-layer="613" from-port="2" to-layer="616" to-port="0" />
		<edge from-layer="614" from-port="0" to-layer="615" to-port="0" />
		<edge from-layer="615" from-port="1" to-layer="616" to-port="1" />
		<edge from-layer="616" from-port="2" to-layer="618" to-port="0" />
		<edge from-layer="617" from-port="0" to-layer="618" to-port="1" />
		<edge from-layer="618" from-port="2" to-layer="620" to-port="0" />
		<edge from-layer="619" from-port="0" to-layer="620" to-port="1" />
		<edge from-layer="620" from-port="2" to-layer="643" to-port="0" />
		<edge from-layer="621" from-port="0" to-layer="622" to-port="0" />
		<edge from-layer="622" from-port="1" to-layer="623" to-port="1" />
		<edge from-layer="623" from-port="2" to-layer="626" to-port="0" />
		<edge from-layer="624" from-port="0" to-layer="625" to-port="0" />
		<edge from-layer="625" from-port="1" to-layer="626" to-port="1" />
		<edge from-layer="626" from-port="2" to-layer="628" to-port="0" />
		<edge from-layer="627" from-port="0" to-layer="628" to-port="1" />
		<edge from-layer="628" from-port="2" to-layer="630" to-port="0" />
		<edge from-layer="629" from-port="0" to-layer="630" to-port="1" />
		<edge from-layer="630" from-port="2" to-layer="643" to-port="1" />
		<edge from-layer="631" from-port="0" to-layer="632" to-port="0" />
		<edge from-layer="632" from-port="1" to-layer="633" to-port="1" />
		<edge from-layer="633" from-port="2" to-layer="636" to-port="0" />
		<edge from-layer="634" from-port="0" to-layer="635" to-port="0" />
		<edge from-layer="635" from-port="1" to-layer="636" to-port="1" />
		<edge from-layer="636" from-port="2" to-layer="638" to-port="0" />
		<edge from-layer="637" from-port="0" to-layer="638" to-port="1" />
		<edge from-layer="638" from-port="2" to-layer="640" to-port="0" />
		<edge from-layer="639" from-port="0" to-layer="640" to-port="1" />
		<edge from-layer="640" from-port="2" to-layer="643" to-port="2" />
		<edge from-layer="641" from-port="0" to-layer="642" to-port="0" />
		<edge from-layer="642" from-port="1" to-layer="643" to-port="3" />
		<edge from-layer="643" from-port="5" to-layer="645" to-port="0" />
		<edge from-layer="644" from-port="0" to-layer="645" to-port="1" />
		<edge from-layer="645" from-port="2" to-layer="647" to-port="0" />
		<edge from-layer="646" from-port="0" to-layer="647" to-port="1" />
		<edge from-layer="647" from-port="2" to-layer="650" to-port="0" />
		<edge from-layer="648" from-port="0" to-layer="649" to-port="0" />
		<edge from-layer="649" from-port="1" to-layer="650" to-port="1" />
		<edge from-layer="650" from-port="2" to-layer="653" to-port="0" />
		<edge from-layer="651" from-port="0" to-layer="652" to-port="0" />
		<edge from-layer="652" from-port="1" to-layer="653" to-port="1" />
		<edge from-layer="653" from-port="2" to-layer="656" to-port="0" />
		<edge from-layer="654" from-port="0" to-layer="655" to-port="0" />
		<edge from-layer="655" from-port="1" to-layer="656" to-port="1" />
		<edge from-layer="656" from-port="2" to-layer="657" to-port="0" />
		<edge from-layer="657" from-port="2" to-layer="659" to-port="0" />
		<edge from-layer="657" from-port="2" to-layer="681" to-port="1" />
		<edge from-layer="658" from-port="0" to-layer="659" to-port="1" />
		<edge from-layer="659" from-port="2" to-layer="662" to-port="0" />
		<edge from-layer="660" from-port="0" to-layer="661" to-port="0" />
		<edge from-layer="661" from-port="1" to-layer="662" to-port="1" />
		<edge from-layer="662" from-port="2" to-layer="665" to-port="0" />
		<edge from-layer="663" from-port="0" to-layer="664" to-port="0" />
		<edge from-layer="664" from-port="1" to-layer="665" to-port="1" />
		<edge from-layer="665" from-port="2" to-layer="668" to-port="0" />
		<edge from-layer="666" from-port="0" to-layer="667" to-port="0" />
		<edge from-layer="667" from-port="1" to-layer="668" to-port="1" />
		<edge from-layer="668" from-port="2" to-layer="671" to-port="0" />
		<edge from-layer="669" from-port="0" to-layer="670" to-port="0" />
		<edge from-layer="670" from-port="1" to-layer="671" to-port="1" />
		<edge from-layer="671" from-port="2" to-layer="672" to-port="0" />
		<edge from-layer="672" from-port="1" to-layer="675" to-port="0" />
		<edge from-layer="673" from-port="0" to-layer="674" to-port="0" />
		<edge from-layer="674" from-port="1" to-layer="675" to-port="1" />
		<edge from-layer="675" from-port="2" to-layer="677" to-port="0" />
		<edge from-layer="676" from-port="0" to-layer="677" to-port="1" />
		<edge from-layer="677" from-port="2" to-layer="680" to-port="0" />
		<edge from-layer="678" from-port="0" to-layer="679" to-port="0" />
		<edge from-layer="679" from-port="1" to-layer="680" to-port="1" />
		<edge from-layer="680" from-port="2" to-layer="681" to-port="0" />
		<edge from-layer="681" from-port="2" to-layer="683" to-port="0" />
		<edge from-layer="681" from-port="2" to-layer="735" to-port="1" />
		<edge from-layer="682" from-port="0" to-layer="683" to-port="1" />
		<edge from-layer="683" from-port="2" to-layer="686" to-port="0" />
		<edge from-layer="684" from-port="0" to-layer="685" to-port="0" />
		<edge from-layer="685" from-port="1" to-layer="686" to-port="1" />
		<edge from-layer="686" from-port="2" to-layer="689" to-port="0" />
		<edge from-layer="687" from-port="0" to-layer="688" to-port="0" />
		<edge from-layer="688" from-port="1" to-layer="689" to-port="1" />
		<edge from-layer="689" from-port="2" to-layer="712" to-port="0" />
		<edge from-layer="689" from-port="2" to-layer="702" to-port="0" />
		<edge from-layer="689" from-port="2" to-layer="692" to-port="0" />
		<edge from-layer="690" from-port="0" to-layer="691" to-port="0" />
		<edge from-layer="691" from-port="1" to-layer="692" to-port="1" />
		<edge from-layer="692" from-port="2" to-layer="695" to-port="0" />
		<edge from-layer="693" from-port="0" to-layer="694" to-port="0" />
		<edge from-layer="694" from-port="1" to-layer="695" to-port="1" />
		<edge from-layer="695" from-port="2" to-layer="697" to-port="0" />
		<edge from-layer="696" from-port="0" to-layer="697" to-port="1" />
		<edge from-layer="697" from-port="2" to-layer="699" to-port="0" />
		<edge from-layer="698" from-port="0" to-layer="699" to-port="1" />
		<edge from-layer="699" from-port="2" to-layer="721" to-port="0" />
		<edge from-layer="700" from-port="0" to-layer="701" to-port="0" />
		<edge from-layer="701" from-port="1" to-layer="702" to-port="1" />
		<edge from-layer="702" from-port="2" to-layer="705" to-port="0" />
		<edge from-layer="703" from-port="0" to-layer="704" to-port="0" />
		<edge from-layer="704" from-port="1" to-layer="705" to-port="1" />
		<edge from-layer="705" from-port="2" to-layer="707" to-port="0" />
		<edge from-layer="706" from-port="0" to-layer="707" to-port="1" />
		<edge from-layer="707" from-port="2" to-layer="709" to-port="0" />
		<edge from-layer="708" from-port="0" to-layer="709" to-port="1" />
		<edge from-layer="709" from-port="2" to-layer="721" to-port="1" />
		<edge from-layer="710" from-port="0" to-layer="711" to-port="0" />
		<edge from-layer="711" from-port="1" to-layer="712" to-port="1" />
		<edge from-layer="712" from-port="2" to-layer="714" to-port="0" />
		<edge from-layer="713" from-port="0" to-layer="714" to-port="1" />
		<edge from-layer="714" from-port="2" to-layer="716" to-port="0" />
		<edge from-layer="715" from-port="0" to-layer="716" to-port="1" />
		<edge from-layer="716" from-port="2" to-layer="718" to-port="0" />
		<edge from-layer="717" from-port="0" to-layer="718" to-port="1" />
		<edge from-layer="718" from-port="2" to-layer="721" to-port="2" />
		<edge from-layer="719" from-port="0" to-layer="720" to-port="0" />
		<edge from-layer="720" from-port="1" to-layer="721" to-port="3" />
		<edge from-layer="721" from-port="5" to-layer="723" to-port="0" />
		<edge from-layer="722" from-port="0" to-layer="723" to-port="1" />
		<edge from-layer="723" from-port="2" to-layer="725" to-port="0" />
		<edge from-layer="724" from-port="0" to-layer="725" to-port="1" />
		<edge from-layer="725" from-port="2" to-layer="728" to-port="0" />
		<edge from-layer="726" from-port="0" to-layer="727" to-port="0" />
		<edge from-layer="727" from-port="1" to-layer="728" to-port="1" />
		<edge from-layer="728" from-port="2" to-layer="731" to-port="0" />
		<edge from-layer="729" from-port="0" to-layer="730" to-port="0" />
		<edge from-layer="730" from-port="1" to-layer="731" to-port="1" />
		<edge from-layer="731" from-port="2" to-layer="734" to-port="0" />
		<edge from-layer="732" from-port="0" to-layer="733" to-port="0" />
		<edge from-layer="733" from-port="1" to-layer="734" to-port="1" />
		<edge from-layer="734" from-port="2" to-layer="735" to-port="0" />
		<edge from-layer="735" from-port="2" to-layer="737" to-port="0" />
		<edge from-layer="735" from-port="2" to-layer="760" to-port="1" />
		<edge from-layer="736" from-port="0" to-layer="737" to-port="1" />
		<edge from-layer="737" from-port="2" to-layer="740" to-port="0" />
		<edge from-layer="738" from-port="0" to-layer="739" to-port="0" />
		<edge from-layer="739" from-port="1" to-layer="740" to-port="1" />
		<edge from-layer="740" from-port="2" to-layer="743" to-port="0" />
		<edge from-layer="741" from-port="0" to-layer="742" to-port="0" />
		<edge from-layer="742" from-port="1" to-layer="743" to-port="1" />
		<edge from-layer="743" from-port="2" to-layer="746" to-port="0" />
		<edge from-layer="744" from-port="0" to-layer="745" to-port="0" />
		<edge from-layer="745" from-port="1" to-layer="746" to-port="1" />
		<edge from-layer="746" from-port="2" to-layer="749" to-port="0" />
		<edge from-layer="747" from-port="0" to-layer="748" to-port="0" />
		<edge from-layer="748" from-port="1" to-layer="749" to-port="1" />
		<edge from-layer="749" from-port="2" to-layer="750" to-port="0" />
		<edge from-layer="750" from-port="1" to-layer="753" to-port="0" />
		<edge from-layer="751" from-port="0" to-layer="752" to-port="0" />
		<edge from-layer="752" from-port="1" to-layer="753" to-port="1" />
		<edge from-layer="753" from-port="2" to-layer="756" to-port="0" />
		<edge from-layer="754" from-port="0" to-layer="755" to-port="0" />
		<edge from-layer="755" from-port="1" to-layer="756" to-port="1" />
		<edge from-layer="756" from-port="2" to-layer="759" to-port="0" />
		<edge from-layer="757" from-port="0" to-layer="758" to-port="0" />
		<edge from-layer="758" from-port="1" to-layer="759" to-port="1" />
		<edge from-layer="759" from-port="2" to-layer="760" to-port="0" />
		<edge from-layer="760" from-port="2" to-layer="762" to-port="0" />
		<edge from-layer="760" from-port="2" to-layer="814" to-port="1" />
		<edge from-layer="761" from-port="0" to-layer="762" to-port="1" />
		<edge from-layer="762" from-port="2" to-layer="1049" to-port="0" />
		<edge from-layer="762" from-port="2" to-layer="765" to-port="0" />
		<edge from-layer="763" from-port="0" to-layer="764" to-port="0" />
		<edge from-layer="764" from-port="1" to-layer="765" to-port="1" />
		<edge from-layer="765" from-port="2" to-layer="768" to-port="0" />
		<edge from-layer="766" from-port="0" to-layer="767" to-port="0" />
		<edge from-layer="767" from-port="1" to-layer="768" to-port="1" />
		<edge from-layer="768" from-port="2" to-layer="781" to-port="0" />
		<edge from-layer="768" from-port="2" to-layer="771" to-port="0" />
		<edge from-layer="768" from-port="2" to-layer="791" to-port="0" />
		<edge from-layer="769" from-port="0" to-layer="770" to-port="0" />
		<edge from-layer="770" from-port="1" to-layer="771" to-port="1" />
		<edge from-layer="771" from-port="2" to-layer="774" to-port="0" />
		<edge from-layer="772" from-port="0" to-layer="773" to-port="0" />
		<edge from-layer="773" from-port="1" to-layer="774" to-port="1" />
		<edge from-layer="774" from-port="2" to-layer="776" to-port="0" />
		<edge from-layer="775" from-port="0" to-layer="776" to-port="1" />
		<edge from-layer="776" from-port="2" to-layer="778" to-port="0" />
		<edge from-layer="777" from-port="0" to-layer="778" to-port="1" />
		<edge from-layer="778" from-port="2" to-layer="801" to-port="0" />
		<edge from-layer="779" from-port="0" to-layer="780" to-port="0" />
		<edge from-layer="780" from-port="1" to-layer="781" to-port="1" />
		<edge from-layer="781" from-port="2" to-layer="784" to-port="0" />
		<edge from-layer="782" from-port="0" to-layer="783" to-port="0" />
		<edge from-layer="783" from-port="1" to-layer="784" to-port="1" />
		<edge from-layer="784" from-port="2" to-layer="786" to-port="0" />
		<edge from-layer="785" from-port="0" to-layer="786" to-port="1" />
		<edge from-layer="786" from-port="2" to-layer="788" to-port="0" />
		<edge from-layer="787" from-port="0" to-layer="788" to-port="1" />
		<edge from-layer="788" from-port="2" to-layer="801" to-port="1" />
		<edge from-layer="789" from-port="0" to-layer="790" to-port="0" />
		<edge from-layer="790" from-port="1" to-layer="791" to-port="1" />
		<edge from-layer="791" from-port="2" to-layer="794" to-port="0" />
		<edge from-layer="792" from-port="0" to-layer="793" to-port="0" />
		<edge from-layer="793" from-port="1" to-layer="794" to-port="1" />
		<edge from-layer="794" from-port="2" to-layer="796" to-port="0" />
		<edge from-layer="795" from-port="0" to-layer="796" to-port="1" />
		<edge from-layer="796" from-port="2" to-layer="798" to-port="0" />
		<edge from-layer="797" from-port="0" to-layer="798" to-port="1" />
		<edge from-layer="798" from-port="2" to-layer="801" to-port="2" />
		<edge from-layer="799" from-port="0" to-layer="800" to-port="0" />
		<edge from-layer="800" from-port="1" to-layer="801" to-port="3" />
		<edge from-layer="801" from-port="5" to-layer="803" to-port="0" />
		<edge from-layer="802" from-port="0" to-layer="803" to-port="1" />
		<edge from-layer="803" from-port="2" to-layer="805" to-port="0" />
		<edge from-layer="804" from-port="0" to-layer="805" to-port="1" />
		<edge from-layer="805" from-port="2" to-layer="808" to-port="0" />
		<edge from-layer="806" from-port="0" to-layer="807" to-port="0" />
		<edge from-layer="807" from-port="1" to-layer="808" to-port="1" />
		<edge from-layer="808" from-port="2" to-layer="811" to-port="0" />
		<edge from-layer="809" from-port="0" to-layer="810" to-port="0" />
		<edge from-layer="810" from-port="1" to-layer="811" to-port="1" />
		<edge from-layer="811" from-port="2" to-layer="813" to-port="0" />
		<edge from-layer="812" from-port="0" to-layer="813" to-port="1" />
		<edge from-layer="813" from-port="2" to-layer="814" to-port="0" />
		<edge from-layer="814" from-port="2" to-layer="816" to-port="0" />
		<edge from-layer="814" from-port="2" to-layer="839" to-port="1" />
		<edge from-layer="815" from-port="0" to-layer="816" to-port="1" />
		<edge from-layer="816" from-port="2" to-layer="819" to-port="0" />
		<edge from-layer="817" from-port="0" to-layer="818" to-port="0" />
		<edge from-layer="818" from-port="1" to-layer="819" to-port="1" />
		<edge from-layer="819" from-port="2" to-layer="822" to-port="0" />
		<edge from-layer="820" from-port="0" to-layer="821" to-port="0" />
		<edge from-layer="821" from-port="1" to-layer="822" to-port="1" />
		<edge from-layer="822" from-port="2" to-layer="825" to-port="0" />
		<edge from-layer="823" from-port="0" to-layer="824" to-port="0" />
		<edge from-layer="824" from-port="1" to-layer="825" to-port="1" />
		<edge from-layer="825" from-port="2" to-layer="828" to-port="0" />
		<edge from-layer="826" from-port="0" to-layer="827" to-port="0" />
		<edge from-layer="827" from-port="1" to-layer="828" to-port="1" />
		<edge from-layer="828" from-port="2" to-layer="829" to-port="0" />
		<edge from-layer="829" from-port="1" to-layer="832" to-port="0" />
		<edge from-layer="830" from-port="0" to-layer="831" to-port="0" />
		<edge from-layer="831" from-port="1" to-layer="832" to-port="1" />
		<edge from-layer="832" from-port="2" to-layer="835" to-port="0" />
		<edge from-layer="833" from-port="0" to-layer="834" to-port="0" />
		<edge from-layer="834" from-port="1" to-layer="835" to-port="1" />
		<edge from-layer="835" from-port="2" to-layer="838" to-port="0" />
		<edge from-layer="836" from-port="0" to-layer="837" to-port="0" />
		<edge from-layer="837" from-port="1" to-layer="838" to-port="1" />
		<edge from-layer="838" from-port="2" to-layer="839" to-port="0" />
		<edge from-layer="839" from-port="2" to-layer="841" to-port="0" />
		<edge from-layer="839" from-port="2" to-layer="893" to-port="1" />
		<edge from-layer="840" from-port="0" to-layer="841" to-port="1" />
		<edge from-layer="841" from-port="2" to-layer="844" to-port="0" />
		<edge from-layer="842" from-port="0" to-layer="843" to-port="0" />
		<edge from-layer="843" from-port="1" to-layer="844" to-port="1" />
		<edge from-layer="844" from-port="2" to-layer="846" to-port="0" />
		<edge from-layer="845" from-port="0" to-layer="846" to-port="1" />
		<edge from-layer="846" from-port="2" to-layer="859" to-port="0" />
		<edge from-layer="846" from-port="2" to-layer="869" to-port="0" />
		<edge from-layer="846" from-port="2" to-layer="849" to-port="0" />
		<edge from-layer="847" from-port="0" to-layer="848" to-port="0" />
		<edge from-layer="848" from-port="1" to-layer="849" to-port="1" />
		<edge from-layer="849" from-port="2" to-layer="852" to-port="0" />
		<edge from-layer="850" from-port="0" to-layer="851" to-port="0" />
		<edge from-layer="851" from-port="1" to-layer="852" to-port="1" />
		<edge from-layer="852" from-port="2" to-layer="854" to-port="0" />
		<edge from-layer="853" from-port="0" to-layer="854" to-port="1" />
		<edge from-layer="854" from-port="2" to-layer="856" to-port="0" />
		<edge from-layer="855" from-port="0" to-layer="856" to-port="1" />
		<edge from-layer="856" from-port="2" to-layer="879" to-port="0" />
		<edge from-layer="857" from-port="0" to-layer="858" to-port="0" />
		<edge from-layer="858" from-port="1" to-layer="859" to-port="1" />
		<edge from-layer="859" from-port="2" to-layer="862" to-port="0" />
		<edge from-layer="860" from-port="0" to-layer="861" to-port="0" />
		<edge from-layer="861" from-port="1" to-layer="862" to-port="1" />
		<edge from-layer="862" from-port="2" to-layer="864" to-port="0" />
		<edge from-layer="863" from-port="0" to-layer="864" to-port="1" />
		<edge from-layer="864" from-port="2" to-layer="866" to-port="0" />
		<edge from-layer="865" from-port="0" to-layer="866" to-port="1" />
		<edge from-layer="866" from-port="2" to-layer="879" to-port="1" />
		<edge from-layer="867" from-port="0" to-layer="868" to-port="0" />
		<edge from-layer="868" from-port="1" to-layer="869" to-port="1" />
		<edge from-layer="869" from-port="2" to-layer="872" to-port="0" />
		<edge from-layer="870" from-port="0" to-layer="871" to-port="0" />
		<edge from-layer="871" from-port="1" to-layer="872" to-port="1" />
		<edge from-layer="872" from-port="2" to-layer="874" to-port="0" />
		<edge from-layer="873" from-port="0" to-layer="874" to-port="1" />
		<edge from-layer="874" from-port="2" to-layer="876" to-port="0" />
		<edge from-layer="875" from-port="0" to-layer="876" to-port="1" />
		<edge from-layer="876" from-port="2" to-layer="879" to-port="2" />
		<edge from-layer="877" from-port="0" to-layer="878" to-port="0" />
		<edge from-layer="878" from-port="1" to-layer="879" to-port="3" />
		<edge from-layer="879" from-port="5" to-layer="881" to-port="0" />
		<edge from-layer="880" from-port="0" to-layer="881" to-port="1" />
		<edge from-layer="881" from-port="2" to-layer="883" to-port="0" />
		<edge from-layer="882" from-port="0" to-layer="883" to-port="1" />
		<edge from-layer="883" from-port="2" to-layer="886" to-port="0" />
		<edge from-layer="884" from-port="0" to-layer="885" to-port="0" />
		<edge from-layer="885" from-port="1" to-layer="886" to-port="1" />
		<edge from-layer="886" from-port="2" to-layer="889" to-port="0" />
		<edge from-layer="887" from-port="0" to-layer="888" to-port="0" />
		<edge from-layer="888" from-port="1" to-layer="889" to-port="1" />
		<edge from-layer="889" from-port="2" to-layer="892" to-port="0" />
		<edge from-layer="890" from-port="0" to-layer="891" to-port="0" />
		<edge from-layer="891" from-port="1" to-layer="892" to-port="1" />
		<edge from-layer="892" from-port="2" to-layer="893" to-port="0" />
		<edge from-layer="893" from-port="2" to-layer="895" to-port="0" />
		<edge from-layer="893" from-port="2" to-layer="918" to-port="1" />
		<edge from-layer="894" from-port="0" to-layer="895" to-port="1" />
		<edge from-layer="895" from-port="2" to-layer="898" to-port="0" />
		<edge from-layer="896" from-port="0" to-layer="897" to-port="0" />
		<edge from-layer="897" from-port="1" to-layer="898" to-port="1" />
		<edge from-layer="898" from-port="2" to-layer="901" to-port="0" />
		<edge from-layer="899" from-port="0" to-layer="900" to-port="0" />
		<edge from-layer="900" from-port="1" to-layer="901" to-port="1" />
		<edge from-layer="901" from-port="2" to-layer="904" to-port="0" />
		<edge from-layer="902" from-port="0" to-layer="903" to-port="0" />
		<edge from-layer="903" from-port="1" to-layer="904" to-port="1" />
		<edge from-layer="904" from-port="2" to-layer="907" to-port="0" />
		<edge from-layer="905" from-port="0" to-layer="906" to-port="0" />
		<edge from-layer="906" from-port="1" to-layer="907" to-port="1" />
		<edge from-layer="907" from-port="2" to-layer="908" to-port="0" />
		<edge from-layer="908" from-port="1" to-layer="911" to-port="0" />
		<edge from-layer="909" from-port="0" to-layer="910" to-port="0" />
		<edge from-layer="910" from-port="1" to-layer="911" to-port="1" />
		<edge from-layer="911" from-port="2" to-layer="914" to-port="0" />
		<edge from-layer="912" from-port="0" to-layer="913" to-port="0" />
		<edge from-layer="913" from-port="1" to-layer="914" to-port="1" />
		<edge from-layer="914" from-port="2" to-layer="917" to-port="0" />
		<edge from-layer="915" from-port="0" to-layer="916" to-port="0" />
		<edge from-layer="916" from-port="1" to-layer="917" to-port="1" />
		<edge from-layer="917" from-port="2" to-layer="918" to-port="0" />
		<edge from-layer="918" from-port="2" to-layer="920" to-port="0" />
		<edge from-layer="918" from-port="2" to-layer="973" to-port="1" />
		<edge from-layer="919" from-port="0" to-layer="920" to-port="1" />
		<edge from-layer="920" from-port="2" to-layer="923" to-port="0" />
		<edge from-layer="921" from-port="0" to-layer="922" to-port="0" />
		<edge from-layer="922" from-port="1" to-layer="923" to-port="1" />
		<edge from-layer="923" from-port="2" to-layer="926" to-port="0" />
		<edge from-layer="924" from-port="0" to-layer="925" to-port="0" />
		<edge from-layer="925" from-port="1" to-layer="926" to-port="1" />
		<edge from-layer="926" from-port="2" to-layer="939" to-port="0" />
		<edge from-layer="926" from-port="2" to-layer="949" to-port="0" />
		<edge from-layer="926" from-port="2" to-layer="929" to-port="0" />
		<edge from-layer="927" from-port="0" to-layer="928" to-port="0" />
		<edge from-layer="928" from-port="1" to-layer="929" to-port="1" />
		<edge from-layer="929" from-port="2" to-layer="932" to-port="0" />
		<edge from-layer="930" from-port="0" to-layer="931" to-port="0" />
		<edge from-layer="931" from-port="1" to-layer="932" to-port="1" />
		<edge from-layer="932" from-port="2" to-layer="934" to-port="0" />
		<edge from-layer="933" from-port="0" to-layer="934" to-port="1" />
		<edge from-layer="934" from-port="2" to-layer="936" to-port="0" />
		<edge from-layer="935" from-port="0" to-layer="936" to-port="1" />
		<edge from-layer="936" from-port="2" to-layer="959" to-port="0" />
		<edge from-layer="937" from-port="0" to-layer="938" to-port="0" />
		<edge from-layer="938" from-port="1" to-layer="939" to-port="1" />
		<edge from-layer="939" from-port="2" to-layer="942" to-port="0" />
		<edge from-layer="940" from-port="0" to-layer="941" to-port="0" />
		<edge from-layer="941" from-port="1" to-layer="942" to-port="1" />
		<edge from-layer="942" from-port="2" to-layer="944" to-port="0" />
		<edge from-layer="943" from-port="0" to-layer="944" to-port="1" />
		<edge from-layer="944" from-port="2" to-layer="946" to-port="0" />
		<edge from-layer="945" from-port="0" to-layer="946" to-port="1" />
		<edge from-layer="946" from-port="2" to-layer="959" to-port="1" />
		<edge from-layer="947" from-port="0" to-layer="948" to-port="0" />
		<edge from-layer="948" from-port="1" to-layer="949" to-port="1" />
		<edge from-layer="949" from-port="2" to-layer="952" to-port="0" />
		<edge from-layer="950" from-port="0" to-layer="951" to-port="0" />
		<edge from-layer="951" from-port="1" to-layer="952" to-port="1" />
		<edge from-layer="952" from-port="2" to-layer="954" to-port="0" />
		<edge from-layer="953" from-port="0" to-layer="954" to-port="1" />
		<edge from-layer="954" from-port="2" to-layer="956" to-port="0" />
		<edge from-layer="955" from-port="0" to-layer="956" to-port="1" />
		<edge from-layer="956" from-port="2" to-layer="959" to-port="2" />
		<edge from-layer="957" from-port="0" to-layer="958" to-port="0" />
		<edge from-layer="958" from-port="1" to-layer="959" to-port="3" />
		<edge from-layer="959" from-port="5" to-layer="961" to-port="0" />
		<edge from-layer="960" from-port="0" to-layer="961" to-port="1" />
		<edge from-layer="961" from-port="2" to-layer="963" to-port="0" />
		<edge from-layer="962" from-port="0" to-layer="963" to-port="1" />
		<edge from-layer="963" from-port="2" to-layer="966" to-port="0" />
		<edge from-layer="964" from-port="0" to-layer="965" to-port="0" />
		<edge from-layer="965" from-port="1" to-layer="966" to-port="1" />
		<edge from-layer="966" from-port="2" to-layer="969" to-port="0" />
		<edge from-layer="967" from-port="0" to-layer="968" to-port="0" />
		<edge from-layer="968" from-port="1" to-layer="969" to-port="1" />
		<edge from-layer="969" from-port="2" to-layer="972" to-port="0" />
		<edge from-layer="970" from-port="0" to-layer="971" to-port="0" />
		<edge from-layer="971" from-port="1" to-layer="972" to-port="1" />
		<edge from-layer="972" from-port="2" to-layer="973" to-port="0" />
		<edge from-layer="973" from-port="2" to-layer="998" to-port="1" />
		<edge from-layer="973" from-port="2" to-layer="975" to-port="0" />
		<edge from-layer="974" from-port="0" to-layer="975" to-port="1" />
		<edge from-layer="975" from-port="2" to-layer="978" to-port="0" />
		<edge from-layer="976" from-port="0" to-layer="977" to-port="0" />
		<edge from-layer="977" from-port="1" to-layer="978" to-port="1" />
		<edge from-layer="978" from-port="2" to-layer="981" to-port="0" />
		<edge from-layer="979" from-port="0" to-layer="980" to-port="0" />
		<edge from-layer="980" from-port="1" to-layer="981" to-port="1" />
		<edge from-layer="981" from-port="2" to-layer="984" to-port="0" />
		<edge from-layer="982" from-port="0" to-layer="983" to-port="0" />
		<edge from-layer="983" from-port="1" to-layer="984" to-port="1" />
		<edge from-layer="984" from-port="2" to-layer="987" to-port="0" />
		<edge from-layer="985" from-port="0" to-layer="986" to-port="0" />
		<edge from-layer="986" from-port="1" to-layer="987" to-port="1" />
		<edge from-layer="987" from-port="2" to-layer="988" to-port="0" />
		<edge from-layer="988" from-port="1" to-layer="991" to-port="0" />
		<edge from-layer="989" from-port="0" to-layer="990" to-port="0" />
		<edge from-layer="990" from-port="1" to-layer="991" to-port="1" />
		<edge from-layer="991" from-port="2" to-layer="994" to-port="0" />
		<edge from-layer="992" from-port="0" to-layer="993" to-port="0" />
		<edge from-layer="993" from-port="1" to-layer="994" to-port="1" />
		<edge from-layer="994" from-port="2" to-layer="997" to-port="0" />
		<edge from-layer="995" from-port="0" to-layer="996" to-port="0" />
		<edge from-layer="996" from-port="1" to-layer="997" to-port="1" />
		<edge from-layer="997" from-port="2" to-layer="998" to-port="0" />
		<edge from-layer="998" from-port="2" to-layer="1000" to-port="0" />
		<edge from-layer="999" from-port="0" to-layer="1000" to-port="1" />
		<edge from-layer="1000" from-port="2" to-layer="1003" to-port="0" />
		<edge from-layer="1001" from-port="0" to-layer="1002" to-port="0" />
		<edge from-layer="1002" from-port="1" to-layer="1003" to-port="1" />
		<edge from-layer="1003" from-port="2" to-layer="1006" to-port="0" />
		<edge from-layer="1004" from-port="0" to-layer="1005" to-port="0" />
		<edge from-layer="1005" from-port="1" to-layer="1006" to-port="1" />
		<edge from-layer="1006" from-port="2" to-layer="1011" to-port="0" />
		<edge from-layer="1007" from-port="0" to-layer="1011" to-port="1" />
		<edge from-layer="1008" from-port="0" to-layer="1011" to-port="2" />
		<edge from-layer="1009" from-port="0" to-layer="1011" to-port="3" />
		<edge from-layer="1010" from-port="0" to-layer="1011" to-port="4" />
		<edge from-layer="1011" from-port="5" to-layer="1014" to-port="0" />
		<edge from-layer="1012" from-port="0" to-layer="1013" to-port="3" />
		<edge from-layer="1013" from-port="4" to-layer="1014" to-port="1" />
		<edge from-layer="1013" from-port="4" to-layer="1123" to-port="1" />
		<edge from-layer="1013" from-port="4" to-layer="1058" to-port="1" />
		<edge from-layer="1013" from-port="4" to-layer="1195" to-port="1" />
		<edge from-layer="1014" from-port="2" to-layer="1016" to-port="0" />
		<edge from-layer="1015" from-port="0" to-layer="1016" to-port="1" />
		<edge from-layer="1016" from-port="2" to-layer="1019" to-port="0" />
		<edge from-layer="1017" from-port="0" to-layer="1018" to-port="0" />
		<edge from-layer="1018" from-port="1" to-layer="1019" to-port="1" />
		<edge from-layer="1019" from-port="2" to-layer="1022" to-port="0" />
		<edge from-layer="1020" from-port="0" to-layer="1021" to-port="0" />
		<edge from-layer="1021" from-port="1" to-layer="1022" to-port="1" />
		<edge from-layer="1022" from-port="2" to-layer="1025" to-port="0" />
		<edge from-layer="1023" from-port="0" to-layer="1024" to-port="0" />
		<edge from-layer="1024" from-port="1" to-layer="1025" to-port="1" />
		<edge from-layer="1025" from-port="2" to-layer="1028" to-port="0" />
		<edge from-layer="1026" from-port="0" to-layer="1027" to-port="0" />
		<edge from-layer="1027" from-port="1" to-layer="1028" to-port="1" />
		<edge from-layer="1028" from-port="2" to-layer="1031" to-port="0" />
		<edge from-layer="1029" from-port="0" to-layer="1030" to-port="0" />
		<edge from-layer="1030" from-port="1" to-layer="1031" to-port="1" />
		<edge from-layer="1031" from-port="2" to-layer="1032" to-port="0" />
		<edge from-layer="1031" from-port="2" to-layer="1046" to-port="1" />
		<edge from-layer="1032" from-port="1" to-layer="1035" to-port="0" />
		<edge from-layer="1033" from-port="0" to-layer="1034" to-port="0" />
		<edge from-layer="1034" from-port="1" to-layer="1035" to-port="1" />
		<edge from-layer="1035" from-port="2" to-layer="1038" to-port="0" />
		<edge from-layer="1036" from-port="0" to-layer="1037" to-port="0" />
		<edge from-layer="1037" from-port="1" to-layer="1038" to-port="1" />
		<edge from-layer="1038" from-port="2" to-layer="1039" to-port="0" />
		<edge from-layer="1039" from-port="1" to-layer="1042" to-port="0" />
		<edge from-layer="1040" from-port="0" to-layer="1041" to-port="0" />
		<edge from-layer="1041" from-port="1" to-layer="1042" to-port="1" />
		<edge from-layer="1042" from-port="2" to-layer="1045" to-port="0" />
		<edge from-layer="1043" from-port="0" to-layer="1044" to-port="0" />
		<edge from-layer="1044" from-port="1" to-layer="1045" to-port="1" />
		<edge from-layer="1045" from-port="2" to-layer="1046" to-port="0" />
		<edge from-layer="1046" from-port="2" to-layer="1076" to-port="0" />
		<edge from-layer="1047" from-port="0" to-layer="1048" to-port="0" />
		<edge from-layer="1048" from-port="1" to-layer="1049" to-port="1" />
		<edge from-layer="1049" from-port="2" to-layer="1052" to-port="0" />
		<edge from-layer="1050" from-port="0" to-layer="1051" to-port="0" />
		<edge from-layer="1051" from-port="1" to-layer="1052" to-port="1" />
		<edge from-layer="1052" from-port="2" to-layer="1057" to-port="0" />
		<edge from-layer="1053" from-port="0" to-layer="1057" to-port="1" />
		<edge from-layer="1054" from-port="0" to-layer="1057" to-port="2" />
		<edge from-layer="1055" from-port="0" to-layer="1057" to-port="3" />
		<edge from-layer="1056" from-port="0" to-layer="1057" to-port="4" />
		<edge from-layer="1057" from-port="5" to-layer="1058" to-port="0" />
		<edge from-layer="1058" from-port="2" to-layer="1060" to-port="0" />
		<edge from-layer="1059" from-port="0" to-layer="1060" to-port="1" />
		<edge from-layer="1060" from-port="2" to-layer="1063" to-port="0" />
		<edge from-layer="1061" from-port="0" to-layer="1062" to-port="0" />
		<edge from-layer="1062" from-port="1" to-layer="1063" to-port="1" />
		<edge from-layer="1063" from-port="2" to-layer="1066" to-port="0" />
		<edge from-layer="1064" from-port="0" to-layer="1065" to-port="0" />
		<edge from-layer="1065" from-port="1" to-layer="1066" to-port="1" />
		<edge from-layer="1066" from-port="2" to-layer="1069" to-port="0" />
		<edge from-layer="1067" from-port="0" to-layer="1068" to-port="0" />
		<edge from-layer="1068" from-port="1" to-layer="1069" to-port="1" />
		<edge from-layer="1069" from-port="2" to-layer="1070" to-port="0" />
		<edge from-layer="1069" from-port="2" to-layer="1082" to-port="0" />
		<edge from-layer="1069" from-port="2" to-layer="1096" to-port="1" />
		<edge from-layer="1070" from-port="1" to-layer="1073" to-port="0" />
		<edge from-layer="1071" from-port="0" to-layer="1073" to-port="1" />
		<edge from-layer="1072" from-port="0" to-layer="1073" to-port="2" />
		<edge from-layer="1073" from-port="3" to-layer="1074" to-port="0" />
		<edge from-layer="1074" from-port="1" to-layer="1076" to-port="1" />
		<edge from-layer="1075" from-port="0" to-layer="1076" to-port="2" />
		<edge from-layer="1076" from-port="3" to-layer="1079" to-port="0" />
		<edge from-layer="1077" from-port="0" to-layer="1078" to-port="0" />
		<edge from-layer="1078" from-port="1" to-layer="1079" to-port="1" />
		<edge from-layer="1079" from-port="2" to-layer="1081" to-port="0" />
		<edge from-layer="1080" from-port="0" to-layer="1081" to-port="1" />
		<edge from-layer="1081" from-port="2" to-layer="1097" to-port="0" />
		<edge from-layer="1082" from-port="1" to-layer="1085" to-port="0" />
		<edge from-layer="1083" from-port="0" to-layer="1084" to-port="0" />
		<edge from-layer="1084" from-port="1" to-layer="1085" to-port="1" />
		<edge from-layer="1085" from-port="2" to-layer="1088" to-port="0" />
		<edge from-layer="1086" from-port="0" to-layer="1087" to-port="0" />
		<edge from-layer="1087" from-port="1" to-layer="1088" to-port="1" />
		<edge from-layer="1088" from-port="2" to-layer="1089" to-port="0" />
		<edge from-layer="1089" from-port="1" to-layer="1092" to-port="0" />
		<edge from-layer="1090" from-port="0" to-layer="1091" to-port="0" />
		<edge from-layer="1091" from-port="1" to-layer="1092" to-port="1" />
		<edge from-layer="1092" from-port="2" to-layer="1095" to-port="0" />
		<edge from-layer="1093" from-port="0" to-layer="1094" to-port="0" />
		<edge from-layer="1094" from-port="1" to-layer="1095" to-port="1" />
		<edge from-layer="1095" from-port="2" to-layer="1096" to-port="0" />
		<edge from-layer="1096" from-port="2" to-layer="1097" to-port="1" />
		<edge from-layer="1097" from-port="2" to-layer="1098" to-port="0" />
		<edge from-layer="1097" from-port="2" to-layer="1111" to-port="1" />
		<edge from-layer="1098" from-port="1" to-layer="1101" to-port="0" />
		<edge from-layer="1099" from-port="0" to-layer="1100" to-port="0" />
		<edge from-layer="1100" from-port="1" to-layer="1101" to-port="1" />
		<edge from-layer="1101" from-port="2" to-layer="1104" to-port="0" />
		<edge from-layer="1102" from-port="0" to-layer="1103" to-port="0" />
		<edge from-layer="1103" from-port="1" to-layer="1104" to-port="1" />
		<edge from-layer="1104" from-port="2" to-layer="1105" to-port="0" />
		<edge from-layer="1105" from-port="1" to-layer="1108" to-port="0" />
		<edge from-layer="1106" from-port="0" to-layer="1107" to-port="0" />
		<edge from-layer="1107" from-port="1" to-layer="1108" to-port="1" />
		<edge from-layer="1108" from-port="2" to-layer="1110" to-port="0" />
		<edge from-layer="1109" from-port="0" to-layer="1110" to-port="1" />
		<edge from-layer="1110" from-port="2" to-layer="1111" to-port="0" />
		<edge from-layer="1111" from-port="2" to-layer="1146" to-port="0" />
		<edge from-layer="1112" from-port="0" to-layer="1113" to-port="0" />
		<edge from-layer="1113" from-port="1" to-layer="1114" to-port="1" />
		<edge from-layer="1114" from-port="2" to-layer="1117" to-port="0" />
		<edge from-layer="1115" from-port="0" to-layer="1116" to-port="0" />
		<edge from-layer="1116" from-port="1" to-layer="1117" to-port="1" />
		<edge from-layer="1117" from-port="2" to-layer="1122" to-port="0" />
		<edge from-layer="1118" from-port="0" to-layer="1122" to-port="1" />
		<edge from-layer="1119" from-port="0" to-layer="1122" to-port="2" />
		<edge from-layer="1120" from-port="0" to-layer="1122" to-port="3" />
		<edge from-layer="1121" from-port="0" to-layer="1122" to-port="4" />
		<edge from-layer="1122" from-port="5" to-layer="1123" to-port="0" />
		<edge from-layer="1123" from-port="2" to-layer="1125" to-port="0" />
		<edge from-layer="1124" from-port="0" to-layer="1125" to-port="1" />
		<edge from-layer="1125" from-port="2" to-layer="1128" to-port="0" />
		<edge from-layer="1126" from-port="0" to-layer="1127" to-port="0" />
		<edge from-layer="1127" from-port="1" to-layer="1128" to-port="1" />
		<edge from-layer="1128" from-port="2" to-layer="1131" to-port="0" />
		<edge from-layer="1129" from-port="0" to-layer="1130" to-port="0" />
		<edge from-layer="1130" from-port="1" to-layer="1131" to-port="1" />
		<edge from-layer="1131" from-port="2" to-layer="1134" to-port="0" />
		<edge from-layer="1132" from-port="0" to-layer="1133" to-port="0" />
		<edge from-layer="1133" from-port="1" to-layer="1134" to-port="1" />
		<edge from-layer="1134" from-port="2" to-layer="1136" to-port="0" />
		<edge from-layer="1135" from-port="0" to-layer="1136" to-port="1" />
		<edge from-layer="1136" from-port="2" to-layer="1139" to-port="0" />
		<edge from-layer="1137" from-port="0" to-layer="1138" to-port="0" />
		<edge from-layer="1138" from-port="1" to-layer="1139" to-port="1" />
		<edge from-layer="1139" from-port="2" to-layer="1140" to-port="0" />
		<edge from-layer="1139" from-port="2" to-layer="1167" to-port="1" />
		<edge from-layer="1139" from-port="2" to-layer="1153" to-port="0" />
		<edge from-layer="1140" from-port="1" to-layer="1143" to-port="0" />
		<edge from-layer="1141" from-port="0" to-layer="1143" to-port="1" />
		<edge from-layer="1142" from-port="0" to-layer="1143" to-port="2" />
		<edge from-layer="1143" from-port="3" to-layer="1144" to-port="0" />
		<edge from-layer="1144" from-port="1" to-layer="1146" to-port="1" />
		<edge from-layer="1145" from-port="0" to-layer="1146" to-port="2" />
		<edge from-layer="1146" from-port="3" to-layer="1149" to-port="0" />
		<edge from-layer="1147" from-port="0" to-layer="1148" to-port="0" />
		<edge from-layer="1148" from-port="1" to-layer="1149" to-port="1" />
		<edge from-layer="1149" from-port="2" to-layer="1152" to-port="0" />
		<edge from-layer="1150" from-port="0" to-layer="1151" to-port="0" />
		<edge from-layer="1151" from-port="1" to-layer="1152" to-port="1" />
		<edge from-layer="1152" from-port="2" to-layer="1168" to-port="0" />
		<edge from-layer="1153" from-port="1" to-layer="1156" to-port="0" />
		<edge from-layer="1154" from-port="0" to-layer="1155" to-port="0" />
		<edge from-layer="1155" from-port="1" to-layer="1156" to-port="1" />
		<edge from-layer="1156" from-port="2" to-layer="1159" to-port="0" />
		<edge from-layer="1157" from-port="0" to-layer="1158" to-port="0" />
		<edge from-layer="1158" from-port="1" to-layer="1159" to-port="1" />
		<edge from-layer="1159" from-port="2" to-layer="1160" to-port="0" />
		<edge from-layer="1160" from-port="1" to-layer="1163" to-port="0" />
		<edge from-layer="1161" from-port="0" to-layer="1162" to-port="0" />
		<edge from-layer="1162" from-port="1" to-layer="1163" to-port="1" />
		<edge from-layer="1163" from-port="2" to-layer="1166" to-port="0" />
		<edge from-layer="1164" from-port="0" to-layer="1165" to-port="0" />
		<edge from-layer="1165" from-port="1" to-layer="1166" to-port="1" />
		<edge from-layer="1166" from-port="2" to-layer="1167" to-port="0" />
		<edge from-layer="1167" from-port="2" to-layer="1168" to-port="1" />
		<edge from-layer="1168" from-port="2" to-layer="1169" to-port="0" />
		<edge from-layer="1168" from-port="2" to-layer="1183" to-port="1" />
		<edge from-layer="1169" from-port="1" to-layer="1172" to-port="0" />
		<edge from-layer="1170" from-port="0" to-layer="1171" to-port="0" />
		<edge from-layer="1171" from-port="1" to-layer="1172" to-port="1" />
		<edge from-layer="1172" from-port="2" to-layer="1175" to-port="0" />
		<edge from-layer="1173" from-port="0" to-layer="1174" to-port="0" />
		<edge from-layer="1174" from-port="1" to-layer="1175" to-port="1" />
		<edge from-layer="1175" from-port="2" to-layer="1176" to-port="0" />
		<edge from-layer="1176" from-port="1" to-layer="1179" to-port="0" />
		<edge from-layer="1177" from-port="0" to-layer="1178" to-port="0" />
		<edge from-layer="1178" from-port="1" to-layer="1179" to-port="1" />
		<edge from-layer="1179" from-port="2" to-layer="1182" to-port="0" />
		<edge from-layer="1180" from-port="0" to-layer="1181" to-port="0" />
		<edge from-layer="1181" from-port="1" to-layer="1182" to-port="1" />
		<edge from-layer="1182" from-port="2" to-layer="1183" to-port="0" />
		<edge from-layer="1183" from-port="2" to-layer="1219" to-port="0" />
		<edge from-layer="1184" from-port="0" to-layer="1185" to-port="0" />
		<edge from-layer="1185" from-port="1" to-layer="1186" to-port="1" />
		<edge from-layer="1186" from-port="2" to-layer="1189" to-port="0" />
		<edge from-layer="1187" from-port="0" to-layer="1188" to-port="0" />
		<edge from-layer="1188" from-port="1" to-layer="1189" to-port="1" />
		<edge from-layer="1189" from-port="2" to-layer="1194" to-port="0" />
		<edge from-layer="1190" from-port="0" to-layer="1194" to-port="1" />
		<edge from-layer="1191" from-port="0" to-layer="1194" to-port="2" />
		<edge from-layer="1192" from-port="0" to-layer="1194" to-port="3" />
		<edge from-layer="1193" from-port="0" to-layer="1194" to-port="4" />
		<edge from-layer="1194" from-port="5" to-layer="1195" to-port="0" />
		<edge from-layer="1195" from-port="2" to-layer="1197" to-port="0" />
		<edge from-layer="1196" from-port="0" to-layer="1197" to-port="1" />
		<edge from-layer="1197" from-port="2" to-layer="1200" to-port="0" />
		<edge from-layer="1198" from-port="0" to-layer="1199" to-port="0" />
		<edge from-layer="1199" from-port="1" to-layer="1200" to-port="1" />
		<edge from-layer="1200" from-port="2" to-layer="1203" to-port="0" />
		<edge from-layer="1201" from-port="0" to-layer="1202" to-port="0" />
		<edge from-layer="1202" from-port="1" to-layer="1203" to-port="1" />
		<edge from-layer="1203" from-port="2" to-layer="1206" to-port="0" />
		<edge from-layer="1204" from-port="0" to-layer="1205" to-port="0" />
		<edge from-layer="1205" from-port="1" to-layer="1206" to-port="1" />
		<edge from-layer="1206" from-port="2" to-layer="1209" to-port="0" />
		<edge from-layer="1207" from-port="0" to-layer="1208" to-port="0" />
		<edge from-layer="1208" from-port="1" to-layer="1209" to-port="1" />
		<edge from-layer="1209" from-port="2" to-layer="1212" to-port="0" />
		<edge from-layer="1210" from-port="0" to-layer="1211" to-port="0" />
		<edge from-layer="1211" from-port="1" to-layer="1212" to-port="1" />
		<edge from-layer="1212" from-port="2" to-layer="1213" to-port="0" />
		<edge from-layer="1212" from-port="2" to-layer="1226" to-port="0" />
		<edge from-layer="1212" from-port="2" to-layer="1239" to-port="1" />
		<edge from-layer="1213" from-port="1" to-layer="1216" to-port="0" />
		<edge from-layer="1214" from-port="0" to-layer="1216" to-port="1" />
		<edge from-layer="1215" from-port="0" to-layer="1216" to-port="2" />
		<edge from-layer="1216" from-port="3" to-layer="1217" to-port="0" />
		<edge from-layer="1217" from-port="1" to-layer="1219" to-port="1" />
		<edge from-layer="1218" from-port="0" to-layer="1219" to-port="2" />
		<edge from-layer="1219" from-port="3" to-layer="1222" to-port="0" />
		<edge from-layer="1220" from-port="0" to-layer="1221" to-port="0" />
		<edge from-layer="1221" from-port="1" to-layer="1222" to-port="1" />
		<edge from-layer="1222" from-port="2" to-layer="1225" to-port="0" />
		<edge from-layer="1223" from-port="0" to-layer="1224" to-port="0" />
		<edge from-layer="1224" from-port="1" to-layer="1225" to-port="1" />
		<edge from-layer="1225" from-port="2" to-layer="1240" to-port="0" />
		<edge from-layer="1226" from-port="1" to-layer="1229" to-port="0" />
		<edge from-layer="1227" from-port="0" to-layer="1228" to-port="0" />
		<edge from-layer="1228" from-port="1" to-layer="1229" to-port="1" />
		<edge from-layer="1229" from-port="2" to-layer="1231" to-port="0" />
		<edge from-layer="1230" from-port="0" to-layer="1231" to-port="1" />
		<edge from-layer="1231" from-port="2" to-layer="1232" to-port="0" />
		<edge from-layer="1232" from-port="1" to-layer="1235" to-port="0" />
		<edge from-layer="1233" from-port="0" to-layer="1234" to-port="0" />
		<edge from-layer="1234" from-port="1" to-layer="1235" to-port="1" />
		<edge from-layer="1235" from-port="2" to-layer="1238" to-port="0" />
		<edge from-layer="1236" from-port="0" to-layer="1237" to-port="0" />
		<edge from-layer="1237" from-port="1" to-layer="1238" to-port="1" />
		<edge from-layer="1238" from-port="2" to-layer="1239" to-port="0" />
		<edge from-layer="1239" from-port="2" to-layer="1240" to-port="1" />
		<edge from-layer="1240" from-port="2" to-layer="1241" to-port="0" />
		<edge from-layer="1240" from-port="2" to-layer="1254" to-port="1" />
		<edge from-layer="1241" from-port="1" to-layer="1244" to-port="0" />
		<edge from-layer="1242" from-port="0" to-layer="1243" to-port="0" />
		<edge from-layer="1243" from-port="1" to-layer="1244" to-port="1" />
		<edge from-layer="1244" from-port="2" to-layer="1247" to-port="0" />
		<edge from-layer="1245" from-port="0" to-layer="1246" to-port="0" />
		<edge from-layer="1246" from-port="1" to-layer="1247" to-port="1" />
		<edge from-layer="1247" from-port="2" to-layer="1248" to-port="0" />
		<edge from-layer="1248" from-port="1" to-layer="1251" to-port="0" />
		<edge from-layer="1249" from-port="0" to-layer="1250" to-port="0" />
		<edge from-layer="1250" from-port="1" to-layer="1251" to-port="1" />
		<edge from-layer="1251" from-port="2" to-layer="1253" to-port="0" />
		<edge from-layer="1252" from-port="0" to-layer="1253" to-port="1" />
		<edge from-layer="1253" from-port="2" to-layer="1254" to-port="0" />
		<edge from-layer="1254" from-port="2" to-layer="1257" to-port="0" />
		<edge from-layer="1255" from-port="0" to-layer="1257" to-port="1" />
		<edge from-layer="1256" from-port="0" to-layer="1257" to-port="2" />
		<edge from-layer="1257" from-port="3" to-layer="1260" to-port="0" />
		<edge from-layer="1258" from-port="0" to-layer="1259" to-port="0" />
		<edge from-layer="1259" from-port="1" to-layer="1260" to-port="1" />
		<edge from-layer="1260" from-port="2" to-layer="1262" to-port="0" />
		<edge from-layer="1261" from-port="0" to-layer="1262" to-port="1" />
		<edge from-layer="1262" from-port="2" to-layer="1265" to-port="0" />
		<edge from-layer="1263" from-port="0" to-layer="1264" to-port="0" />
		<edge from-layer="1264" from-port="1" to-layer="1265" to-port="1" />
		<edge from-layer="1265" from-port="2" to-layer="1268" to-port="0" />
		<edge from-layer="1266" from-port="0" to-layer="1267" to-port="0" />
		<edge from-layer="1267" from-port="1" to-layer="1268" to-port="1" />
		<edge from-layer="1268" from-port="2" to-layer="1271" to-port="0" />
		<edge from-layer="1269" from-port="0" to-layer="1271" to-port="1" />
		<edge from-layer="1270" from-port="0" to-layer="1271" to-port="2" />
		<edge from-layer="1271" from-port="3" to-layer="1274" to-port="0" />
		<edge from-layer="1272" from-port="0" to-layer="1273" to-port="0" />
		<edge from-layer="1273" from-port="1" to-layer="1274" to-port="1" />
		<edge from-layer="1274" from-port="2" to-layer="1276" to-port="0" />
		<edge from-layer="1275" from-port="0" to-layer="1276" to-port="1" />
		<edge from-layer="1276" from-port="2" to-layer="1277" to-port="0" />
		<edge from-layer="1277" from-port="1" to-layer="1280" to-port="0" />
		<edge from-layer="1278" from-port="0" to-layer="1279" to-port="0" />
		<edge from-layer="1279" from-port="1" to-layer="1280" to-port="1" />
		<edge from-layer="1280" from-port="2" to-layer="1282" to-port="0" />
		<edge from-layer="1281" from-port="0" to-layer="1282" to-port="1" />
		<edge from-layer="1282" from-port="2" to-layer="1283" to-port="0" />
		<edge from-layer="1283" from-port="1" to-layer="1285" to-port="0" />
		<edge from-layer="1284" from-port="0" to-layer="1285" to-port="1" />
		<edge from-layer="1285" from-port="2" to-layer="1287" to-port="0" />
		<edge from-layer="1286" from-port="0" to-layer="1287" to-port="1" />
		<edge from-layer="1287" from-port="2" to-layer="1288" to-port="0" />
	</edges>
	<rt_info>
		<info name="OpenVINO Runtime" value="2026.2.1-21919-ede283a88e3-releases/2026/2" />
		<Runtime_version value="2026.2.1-21919-ede283a88e3-releases/2026/2" />
		<conversion_parameters>
			<framework value="pytorch" />
			<is_python_object value="True" />
		</conversion_parameters>
	</rt_info>
</net>
